{"format": "graph-model", "generatedBy": "2.9.0", "convertedBy": "TensorFlow.js Converter v3.19.0", "signature": {"inputs": {"input_3": {"name": "input_3:0", "dtype": "DT_FLOAT", "tensorShape": {"dim": [{"size": "-1"}, {"size": "96"}, {"size": "96"}, {"size": "3"}]}}}, "outputs": {"dense_1": {"name": "Identity:0", "dtype": "DT_FLOAT", "tensorShape": {"dim": [{"size": "-1"}, {"size": "130"}]}}}}, "modelTopology": {"node": [{"name": "StatefulPartitionedCall/sequential_3/dense_1/MatMul/ReadVariableOp", "op": "Const", "attr": {"value": {"tensor": {"dtype": "DT_FLOAT", "tensorShape": {"dim": [{"size": "1280"}, {"size": "130"}]}}}, "dtype": {"type": "DT_FLOAT"}}}, {"name": "StatefulPartitionedCall/sequential_3/dense_1/BiasAdd/ReadVariableOp", "op": "Const", "attr": {"value": {"tensor": {"dtype": "DT_FLOAT", "tensorShape": {"dim": [{"size": "130"}]}}}, "dtype": {"type": "DT_FLOAT"}}}, {"name": "input_3", "op": "Placeholder", "attr": {"shape": {"shape": {"dim": [{"size": "-1"}, {"size": "96"}, {"size": "96"}, {"size": "3"}]}}, "dtype": {"type": "DT_FLOAT"}}}, {"name": "StatefulPartitionedCall/sequential_3/keras_layer_1/StatefulPartitionedCall/StatefulPartitionedCall/StatefulPartitionedCall/predict/MobilenetV2/Conv/Conv2D_weights", "op": "Const", "attr": {"dtype": {"type": "DT_FLOAT"}, "value": {"tensor": {"dtype": "DT_FLOAT", "tensorShape": {"dim": [{"size": "3"}, {"size": "3"}, {"size": "3"}, {"size": "32"}]}}}}}, {"name": "StatefulPartitionedCall/sequential_3/keras_layer_1/StatefulPartitionedCall/StatefulPartitionedCall/StatefulPartitionedCall/predict/MobilenetV2/expanded_conv_14/expand/Conv2D_weights", "op": "Const", "attr": {"dtype": {"type": "DT_FLOAT"}, "value": {"tensor": {"dtype": "DT_FLOAT", "tensorShape": {"dim": [{"size": "1"}, {"size": "1"}, {"size": "160"}, {"size": "960"}]}}}}}, {"name": "StatefulPartitionedCall/sequential_3/keras_layer_1/StatefulPartitionedCall/StatefulPartitionedCall/StatefulPartitionedCall/predict/MobilenetV2/Conv/Conv2D_bn_offset", "op": "Const", "attr": {"dtype": {"type": "DT_FLOAT"}, "value": {"tensor": {"dtype": "DT_FLOAT", "tensorShape": {"dim": [{"size": "32"}]}}}}}, {"name": "StatefulPartitionedCall/sequential_3/keras_layer_1/StatefulPartitionedCall/StatefulPartitionedCall/StatefulPartitionedCall/predict/MobilenetV2/expanded_conv_16/project/Conv2D_bn_offset", "op": "Const", "attr": {"dtype": {"type": "DT_FLOAT"}, "value": {"tensor": {"dtype": "DT_FLOAT", "tensorShape": {"dim": [{"size": "320"}]}}}}}, {"name": "StatefulPartitionedCall/sequential_3/keras_layer_1/StatefulPartitionedCall/StatefulPartitionedCall/StatefulPartitionedCall/predict/MobilenetV2/expanded_conv/depthwise/depthwise_weights", "op": "Const", "attr": {"dtype": {"type": "DT_FLOAT"}, "value": {"tensor": {"dtype": "DT_FLOAT", "tensorShape": {"dim": [{"size": "3"}, {"size": "3"}, {"size": "32"}, {"size": "1"}]}}}}}, {"name": "StatefulPartitionedCall/sequential_3/keras_layer_1/StatefulPartitionedCall/StatefulPartitionedCall/StatefulPartitionedCall/predict/MobilenetV2/expanded_conv/depthwise/depthwise_bn_offset", "op": "Const", "attr": {"dtype": {"type": "DT_FLOAT"}, "value": {"tensor": {"dtype": "DT_FLOAT", "tensorShape": {"dim": [{"size": "32"}]}}}}}, {"name": "StatefulPartitionedCall/sequential_3/keras_layer_1/StatefulPartitionedCall/StatefulPartitionedCall/StatefulPartitionedCall/predict/MobilenetV2/expanded_conv/project/Conv2D_weights", "op": "Const", "attr": {"dtype": {"type": "DT_FLOAT"}, "value": {"tensor": {"dtype": "DT_FLOAT", "tensorShape": {"dim": [{"size": "1"}, {"size": "1"}, {"size": "32"}, {"size": "16"}]}}}}}, {"name": "StatefulPartitionedCall/sequential_3/keras_layer_1/StatefulPartitionedCall/StatefulPartitionedCall/StatefulPartitionedCall/predict/MobilenetV2/expanded_conv_14/expand/Conv2D_bn_offset", "op": "Const", "attr": {"value": {"tensor": {"dtype": "DT_FLOAT", "tensorShape": {"dim": [{"size": "960"}]}}}, "dtype": {"type": "DT_FLOAT"}}}, {"name": "StatefulPartitionedCall/sequential_3/keras_layer_1/StatefulPartitionedCall/StatefulPartitionedCall/StatefulPartitionedCall/predict/MobilenetV2/expanded_conv/project/Conv2D_bn_offset", "op": "Const", "attr": {"dtype": {"type": "DT_FLOAT"}, "value": {"tensor": {"dtype": "DT_FLOAT", "tensorShape": {"dim": [{"size": "16"}]}}}}}, {"name": "StatefulPartitionedCall/sequential_3/keras_layer_1/StatefulPartitionedCall/StatefulPartitionedCall/StatefulPartitionedCall/predict/MobilenetV2/expanded_conv_1/expand/Conv2D_weights", "op": "Const", "attr": {"dtype": {"type": "DT_FLOAT"}, "value": {"tensor": {"dtype": "DT_FLOAT", "tensorShape": {"dim": [{"size": "1"}, {"size": "1"}, {"size": "16"}, {"size": "96"}]}}}}}, {"name": "StatefulPartitionedCall/sequential_3/keras_layer_1/StatefulPartitionedCall/StatefulPartitionedCall/StatefulPartitionedCall/predict/MobilenetV2/expanded_conv_1/expand/Conv2D_bn_offset", "op": "Const", "attr": {"dtype": {"type": "DT_FLOAT"}, "value": {"tensor": {"dtype": "DT_FLOAT", "tensorShape": {"dim": [{"size": "96"}]}}}}}, {"name": "StatefulPartitionedCall/sequential_3/keras_layer_1/StatefulPartitionedCall/StatefulPartitionedCall/StatefulPartitionedCall/predict/MobilenetV2/expanded_conv_1/depthwise/depthwise_weights", "op": "Const", "attr": {"dtype": {"type": "DT_FLOAT"}, "value": {"tensor": {"dtype": "DT_FLOAT", "tensorShape": {"dim": [{"size": "3"}, {"size": "3"}, {"size": "96"}, {"size": "1"}]}}}}}, {"name": "StatefulPartitionedCall/sequential_3/keras_layer_1/StatefulPartitionedCall/StatefulPartitionedCall/StatefulPartitionedCall/predict/MobilenetV2/expanded_conv_1/depthwise/depthwise_bn_offset", "op": "Const", "attr": {"dtype": {"type": "DT_FLOAT"}, "value": {"tensor": {"dtype": "DT_FLOAT", "tensorShape": {"dim": [{"size": "96"}]}}}}}, {"name": "StatefulPartitionedCall/sequential_3/keras_layer_1/StatefulPartitionedCall/StatefulPartitionedCall/StatefulPartitionedCall/predict/MobilenetV2/expanded_conv_1/project/Conv2D_weights", "op": "Const", "attr": {"dtype": {"type": "DT_FLOAT"}, "value": {"tensor": {"dtype": "DT_FLOAT", "tensorShape": {"dim": [{"size": "1"}, {"size": "1"}, {"size": "96"}, {"size": "24"}]}}}}}, {"name": "StatefulPartitionedCall/sequential_3/keras_layer_1/StatefulPartitionedCall/StatefulPartitionedCall/StatefulPartitionedCall/predict/MobilenetV2/expanded_conv_14/depthwise/depthwise_weights", "op": "Const", "attr": {"dtype": {"type": "DT_FLOAT"}, "value": {"tensor": {"dtype": "DT_FLOAT", "tensorShape": {"dim": [{"size": "3"}, {"size": "3"}, {"size": "960"}, {"size": "1"}]}}}}}, {"name": "StatefulPartitionedCall/sequential_3/keras_layer_1/StatefulPartitionedCall/StatefulPartitionedCall/StatefulPartitionedCall/predict/MobilenetV2/expanded_conv_1/project/Conv2D_bn_offset", "op": "Const", "attr": {"dtype": {"type": "DT_FLOAT"}, "value": {"tensor": {"dtype": "DT_FLOAT", "tensorShape": {"dim": [{"size": "24"}]}}}}}, {"name": "StatefulPartitionedCall/sequential_3/keras_layer_1/StatefulPartitionedCall/StatefulPartitionedCall/StatefulPartitionedCall/predict/MobilenetV2/expanded_conv_2/expand/Conv2D_weights", "op": "Const", "attr": {"value": {"tensor": {"dtype": "DT_FLOAT", "tensorShape": {"dim": [{"size": "1"}, {"size": "1"}, {"size": "24"}, {"size": "144"}]}}}, "dtype": {"type": "DT_FLOAT"}}}, {"name": "StatefulPartitionedCall/sequential_3/keras_layer_1/StatefulPartitionedCall/StatefulPartitionedCall/StatefulPartitionedCall/predict/MobilenetV2/expanded_conv_2/expand/Conv2D_bn_offset", "op": "Const", "attr": {"dtype": {"type": "DT_FLOAT"}, "value": {"tensor": {"dtype": "DT_FLOAT", "tensorShape": {"dim": [{"size": "144"}]}}}}}, {"name": "StatefulPartitionedCall/sequential_3/keras_layer_1/StatefulPartitionedCall/StatefulPartitionedCall/StatefulPartitionedCall/predict/MobilenetV2/expanded_conv_14/depthwise/depthwise_bn_offset", "op": "Const", "attr": {"dtype": {"type": "DT_FLOAT"}, "value": {"tensor": {"dtype": "DT_FLOAT", "tensorShape": {"dim": [{"size": "960"}]}}}}}, {"name": "StatefulPartitionedCall/sequential_3/keras_layer_1/StatefulPartitionedCall/StatefulPartitionedCall/StatefulPartitionedCall/predict/MobilenetV2/expanded_conv_2/depthwise/depthwise_weights", "op": "Const", "attr": {"dtype": {"type": "DT_FLOAT"}, "value": {"tensor": {"dtype": "DT_FLOAT", "tensorShape": {"dim": [{"size": "3"}, {"size": "3"}, {"size": "144"}, {"size": "1"}]}}}}}, {"name": "StatefulPartitionedCall/sequential_3/keras_layer_1/StatefulPartitionedCall/StatefulPartitionedCall/StatefulPartitionedCall/predict/MobilenetV2/expanded_conv_2/depthwise/depthwise_bn_offset", "op": "Const", "attr": {"dtype": {"type": "DT_FLOAT"}, "value": {"tensor": {"dtype": "DT_FLOAT", "tensorShape": {"dim": [{"size": "144"}]}}}}}, {"name": "StatefulPartitionedCall/sequential_3/keras_layer_1/StatefulPartitionedCall/StatefulPartitionedCall/StatefulPartitionedCall/predict/MobilenetV2/expanded_conv_2/project/Conv2D_weights", "op": "Const", "attr": {"dtype": {"type": "DT_FLOAT"}, "value": {"tensor": {"dtype": "DT_FLOAT", "tensorShape": {"dim": [{"size": "1"}, {"size": "1"}, {"size": "144"}, {"size": "24"}]}}}}}, {"name": "StatefulPartitionedCall/sequential_3/keras_layer_1/StatefulPartitionedCall/StatefulPartitionedCall/StatefulPartitionedCall/predict/MobilenetV2/expanded_conv_2/project/Conv2D_bn_offset", "op": "Const", "attr": {"dtype": {"type": "DT_FLOAT"}, "value": {"tensor": {"dtype": "DT_FLOAT", "tensorShape": {"dim": [{"size": "24"}]}}}}}, {"name": "StatefulPartitionedCall/sequential_3/keras_layer_1/StatefulPartitionedCall/StatefulPartitionedCall/StatefulPartitionedCall/predict/MobilenetV2/expanded_conv_3/expand/Conv2D_weights", "op": "Const", "attr": {"dtype": {"type": "DT_FLOAT"}, "value": {"tensor": {"dtype": "DT_FLOAT", "tensorShape": {"dim": [{"size": "1"}, {"size": "1"}, {"size": "24"}, {"size": "144"}]}}}}}, {"name": "StatefulPartitionedCall/sequential_3/keras_layer_1/StatefulPartitionedCall/StatefulPartitionedCall/StatefulPartitionedCall/predict/MobilenetV2/expanded_conv_3/expand/Conv2D_bn_offset", "op": "Const", "attr": {"dtype": {"type": "DT_FLOAT"}, "value": {"tensor": {"dtype": "DT_FLOAT", "tensorShape": {"dim": [{"size": "144"}]}}}}}, {"name": "StatefulPartitionedCall/sequential_3/keras_layer_1/StatefulPartitionedCall/StatefulPartitionedCall/StatefulPartitionedCall/predict/MobilenetV2/expanded_conv_14/project/Conv2D_weights", "op": "Const", "attr": {"value": {"tensor": {"dtype": "DT_FLOAT", "tensorShape": {"dim": [{"size": "1"}, {"size": "1"}, {"size": "960"}, {"size": "160"}]}}}, "dtype": {"type": "DT_FLOAT"}}}, {"name": "StatefulPartitionedCall/sequential_3/keras_layer_1/StatefulPartitionedCall/StatefulPartitionedCall/StatefulPartitionedCall/predict/MobilenetV2/expanded_conv_3/depthwise/depthwise_weights", "op": "Const", "attr": {"dtype": {"type": "DT_FLOAT"}, "value": {"tensor": {"dtype": "DT_FLOAT", "tensorShape": {"dim": [{"size": "3"}, {"size": "3"}, {"size": "144"}, {"size": "1"}]}}}}}, {"name": "StatefulPartitionedCall/sequential_3/keras_layer_1/StatefulPartitionedCall/StatefulPartitionedCall/StatefulPartitionedCall/predict/MobilenetV2/expanded_conv_3/depthwise/depthwise_bn_offset", "op": "Const", "attr": {"dtype": {"type": "DT_FLOAT"}, "value": {"tensor": {"dtype": "DT_FLOAT", "tensorShape": {"dim": [{"size": "144"}]}}}}}, {"name": "StatefulPartitionedCall/sequential_3/keras_layer_1/StatefulPartitionedCall/StatefulPartitionedCall/StatefulPartitionedCall/predict/MobilenetV2/expanded_conv_3/project/Conv2D_weights", "op": "Const", "attr": {"dtype": {"type": "DT_FLOAT"}, "value": {"tensor": {"dtype": "DT_FLOAT", "tensorShape": {"dim": [{"size": "1"}, {"size": "1"}, {"size": "144"}, {"size": "32"}]}}}}}, {"name": "StatefulPartitionedCall/sequential_3/keras_layer_1/StatefulPartitionedCall/StatefulPartitionedCall/StatefulPartitionedCall/predict/MobilenetV2/Conv_1/Conv2D_weights", "op": "Const", "attr": {"dtype": {"type": "DT_FLOAT"}, "value": {"tensor": {"dtype": "DT_FLOAT", "tensorShape": {"dim": [{"size": "1"}, {"size": "1"}, {"size": "320"}, {"size": "1280"}]}}}}}, {"name": "StatefulPartitionedCall/sequential_3/keras_layer_1/StatefulPartitionedCall/StatefulPartitionedCall/StatefulPartitionedCall/predict/MobilenetV2/expanded_conv_3/project/Conv2D_bn_offset", "op": "Const", "attr": {"dtype": {"type": "DT_FLOAT"}, "value": {"tensor": {"dtype": "DT_FLOAT", "tensorShape": {"dim": [{"size": "32"}]}}}}}, {"name": "StatefulPartitionedCall/sequential_3/keras_layer_1/StatefulPartitionedCall/StatefulPartitionedCall/StatefulPartitionedCall/predict/MobilenetV2/expanded_conv_4/expand/Conv2D_weights", "op": "Const", "attr": {"dtype": {"type": "DT_FLOAT"}, "value": {"tensor": {"dtype": "DT_FLOAT", "tensorShape": {"dim": [{"size": "1"}, {"size": "1"}, {"size": "32"}, {"size": "192"}]}}}}}, {"name": "StatefulPartitionedCall/sequential_3/keras_layer_1/StatefulPartitionedCall/StatefulPartitionedCall/StatefulPartitionedCall/predict/MobilenetV2/expanded_conv_14/project/Conv2D_bn_offset", "op": "Const", "attr": {"dtype": {"type": "DT_FLOAT"}, "value": {"tensor": {"dtype": "DT_FLOAT", "tensorShape": {"dim": [{"size": "160"}]}}}}}, {"name": "StatefulPartitionedCall/sequential_3/keras_layer_1/StatefulPartitionedCall/StatefulPartitionedCall/StatefulPartitionedCall/predict/MobilenetV2/expanded_conv_4/expand/Conv2D_bn_offset", "op": "Const", "attr": {"dtype": {"type": "DT_FLOAT"}, "value": {"tensor": {"dtype": "DT_FLOAT", "tensorShape": {"dim": [{"size": "192"}]}}}}}, {"name": "StatefulPartitionedCall/sequential_3/keras_layer_1/StatefulPartitionedCall/StatefulPartitionedCall/StatefulPartitionedCall/predict/MobilenetV2/expanded_conv_4/depthwise/depthwise_weights", "op": "Const", "attr": {"dtype": {"type": "DT_FLOAT"}, "value": {"tensor": {"dtype": "DT_FLOAT", "tensorShape": {"dim": [{"size": "3"}, {"size": "3"}, {"size": "192"}, {"size": "1"}]}}}}}, {"name": "StatefulPartitionedCall/sequential_3/keras_layer_1/StatefulPartitionedCall/StatefulPartitionedCall/StatefulPartitionedCall/predict/MobilenetV2/expanded_conv_4/depthwise/depthwise_bn_offset", "op": "Const", "attr": {"dtype": {"type": "DT_FLOAT"}, "value": {"tensor": {"dtype": "DT_FLOAT", "tensorShape": {"dim": [{"size": "192"}]}}}}}, {"name": "StatefulPartitionedCall/sequential_3/keras_layer_1/StatefulPartitionedCall/StatefulPartitionedCall/StatefulPartitionedCall/predict/MobilenetV2/expanded_conv_4/project/Conv2D_weights", "op": "Const", "attr": {"dtype": {"type": "DT_FLOAT"}, "value": {"tensor": {"dtype": "DT_FLOAT", "tensorShape": {"dim": [{"size": "1"}, {"size": "1"}, {"size": "192"}, {"size": "32"}]}}}}}, {"name": "StatefulPartitionedCall/sequential_3/keras_layer_1/StatefulPartitionedCall/StatefulPartitionedCall/StatefulPartitionedCall/predict/MobilenetV2/expanded_conv_4/project/Conv2D_bn_offset", "op": "Const", "attr": {"dtype": {"type": "DT_FLOAT"}, "value": {"tensor": {"dtype": "DT_FLOAT", "tensorShape": {"dim": [{"size": "32"}]}}}}}, {"name": "StatefulPartitionedCall/sequential_3/keras_layer_1/StatefulPartitionedCall/StatefulPartitionedCall/StatefulPartitionedCall/predict/MobilenetV2/expanded_conv_5/expand/Conv2D_weights", "op": "Const", "attr": {"dtype": {"type": "DT_FLOAT"}, "value": {"tensor": {"dtype": "DT_FLOAT", "tensorShape": {"dim": [{"size": "1"}, {"size": "1"}, {"size": "32"}, {"size": "192"}]}}}}}, {"name": "StatefulPartitionedCall/sequential_3/keras_layer_1/StatefulPartitionedCall/StatefulPartitionedCall/StatefulPartitionedCall/predict/MobilenetV2/expanded_conv_15/expand/Conv2D_weights", "op": "Const", "attr": {"dtype": {"type": "DT_FLOAT"}, "value": {"tensor": {"dtype": "DT_FLOAT", "tensorShape": {"dim": [{"size": "1"}, {"size": "1"}, {"size": "160"}, {"size": "960"}]}}}}}, {"name": "StatefulPartitionedCall/sequential_3/keras_layer_1/StatefulPartitionedCall/StatefulPartitionedCall/StatefulPartitionedCall/predict/MobilenetV2/expanded_conv_5/expand/Conv2D_bn_offset", "op": "Const", "attr": {"dtype": {"type": "DT_FLOAT"}, "value": {"tensor": {"dtype": "DT_FLOAT", "tensorShape": {"dim": [{"size": "192"}]}}}}}, {"name": "StatefulPartitionedCall/sequential_3/keras_layer_1/StatefulPartitionedCall/StatefulPartitionedCall/StatefulPartitionedCall/predict/MobilenetV2/expanded_conv_5/depthwise/depthwise_weights", "op": "Const", "attr": {"dtype": {"type": "DT_FLOAT"}, "value": {"tensor": {"dtype": "DT_FLOAT", "tensorShape": {"dim": [{"size": "3"}, {"size": "3"}, {"size": "192"}, {"size": "1"}]}}}}}, {"name": "StatefulPartitionedCall/sequential_3/keras_layer_1/StatefulPartitionedCall/StatefulPartitionedCall/StatefulPartitionedCall/predict/MobilenetV2/expanded_conv_5/depthwise/depthwise_bn_offset", "op": "Const", "attr": {"dtype": {"type": "DT_FLOAT"}, "value": {"tensor": {"dtype": "DT_FLOAT", "tensorShape": {"dim": [{"size": "192"}]}}}}}, {"name": "StatefulPartitionedCall/sequential_3/keras_layer_1/StatefulPartitionedCall/StatefulPartitionedCall/StatefulPartitionedCall/predict/MobilenetV2/expanded_conv_5/project/Conv2D_weights", "op": "Const", "attr": {"dtype": {"type": "DT_FLOAT"}, "value": {"tensor": {"dtype": "DT_FLOAT", "tensorShape": {"dim": [{"size": "1"}, {"size": "1"}, {"size": "192"}, {"size": "32"}]}}}}}, {"name": "StatefulPartitionedCall/sequential_3/keras_layer_1/StatefulPartitionedCall/StatefulPartitionedCall/StatefulPartitionedCall/predict/MobilenetV2/expanded_conv_15/expand/Conv2D_bn_offset", "op": "Const", "attr": {"dtype": {"type": "DT_FLOAT"}, "value": {"tensor": {"dtype": "DT_FLOAT", "tensorShape": {"dim": [{"size": "960"}]}}}}}, {"name": "StatefulPartitionedCall/sequential_3/keras_layer_1/StatefulPartitionedCall/StatefulPartitionedCall/StatefulPartitionedCall/predict/MobilenetV2/expanded_conv_5/project/Conv2D_bn_offset", "op": "Const", "attr": {"dtype": {"type": "DT_FLOAT"}, "value": {"tensor": {"dtype": "DT_FLOAT", "tensorShape": {"dim": [{"size": "32"}]}}}}}, {"name": "StatefulPartitionedCall/sequential_3/keras_layer_1/StatefulPartitionedCall/StatefulPartitionedCall/StatefulPartitionedCall/predict/MobilenetV2/expanded_conv_6/expand/Conv2D_weights", "op": "Const", "attr": {"dtype": {"type": "DT_FLOAT"}, "value": {"tensor": {"dtype": "DT_FLOAT", "tensorShape": {"dim": [{"size": "1"}, {"size": "1"}, {"size": "32"}, {"size": "192"}]}}}}}, {"name": "StatefulPartitionedCall/sequential_3/keras_layer_1/StatefulPartitionedCall/StatefulPartitionedCall/StatefulPartitionedCall/predict/MobilenetV2/Conv_1/Conv2D_bn_offset", "op": "Const", "attr": {"dtype": {"type": "DT_FLOAT"}, "value": {"tensor": {"dtype": "DT_FLOAT", "tensorShape": {"dim": [{"size": "1280"}]}}}}}, {"name": "StatefulPartitionedCall/sequential_3/keras_layer_1/StatefulPartitionedCall/StatefulPartitionedCall/StatefulPartitionedCall/predict/MobilenetV2/expanded_conv_6/expand/Conv2D_bn_offset", "op": "Const", "attr": {"dtype": {"type": "DT_FLOAT"}, "value": {"tensor": {"dtype": "DT_FLOAT", "tensorShape": {"dim": [{"size": "192"}]}}}}}, {"name": "StatefulPartitionedCall/sequential_3/keras_layer_1/StatefulPartitionedCall/StatefulPartitionedCall/StatefulPartitionedCall/predict/MobilenetV2/expanded_conv_6/depthwise/depthwise_weights", "op": "Const", "attr": {"dtype": {"type": "DT_FLOAT"}, "value": {"tensor": {"dtype": "DT_FLOAT", "tensorShape": {"dim": [{"size": "3"}, {"size": "3"}, {"size": "192"}, {"size": "1"}]}}}}}, {"name": "StatefulPartitionedCall/sequential_3/keras_layer_1/StatefulPartitionedCall/StatefulPartitionedCall/StatefulPartitionedCall/predict/MobilenetV2/expanded_conv_6/depthwise/depthwise_bn_offset", "op": "Const", "attr": {"dtype": {"type": "DT_FLOAT"}, "value": {"tensor": {"dtype": "DT_FLOAT", "tensorShape": {"dim": [{"size": "192"}]}}}}}, {"name": "StatefulPartitionedCall/sequential_3/keras_layer_1/StatefulPartitionedCall/StatefulPartitionedCall/StatefulPartitionedCall/predict/MobilenetV2/expanded_conv_6/project/Conv2D_weights", "op": "Const", "attr": {"dtype": {"type": "DT_FLOAT"}, "value": {"tensor": {"dtype": "DT_FLOAT", "tensorShape": {"dim": [{"size": "1"}, {"size": "1"}, {"size": "192"}, {"size": "64"}]}}}}}, {"name": "StatefulPartitionedCall/sequential_3/keras_layer_1/StatefulPartitionedCall/StatefulPartitionedCall/StatefulPartitionedCall/predict/MobilenetV2/expanded_conv_15/depthwise/depthwise_weights", "op": "Const", "attr": {"dtype": {"type": "DT_FLOAT"}, "value": {"tensor": {"dtype": "DT_FLOAT", "tensorShape": {"dim": [{"size": "3"}, {"size": "3"}, {"size": "960"}, {"size": "1"}]}}}}}, {"name": "StatefulPartitionedCall/sequential_3/keras_layer_1/StatefulPartitionedCall/StatefulPartitionedCall/StatefulPartitionedCall/predict/MobilenetV2/expanded_conv_6/project/Conv2D_bn_offset", "op": "Const", "attr": {"dtype": {"type": "DT_FLOAT"}, "value": {"tensor": {"dtype": "DT_FLOAT", "tensorShape": {"dim": [{"size": "64"}]}}}}}, {"name": "StatefulPartitionedCall/sequential_3/keras_layer_1/StatefulPartitionedCall/StatefulPartitionedCall/StatefulPartitionedCall/predict/MobilenetV2/expanded_conv_7/expand/Conv2D_weights", "op": "Const", "attr": {"dtype": {"type": "DT_FLOAT"}, "value": {"tensor": {"dtype": "DT_FLOAT", "tensorShape": {"dim": [{"size": "1"}, {"size": "1"}, {"size": "64"}, {"size": "384"}]}}}}}, {"name": "StatefulPartitionedCall/sequential_3/keras_layer_1/StatefulPartitionedCall/StatefulPartitionedCall/StatefulPartitionedCall/predict/MobilenetV2/expanded_conv_7/expand/Conv2D_bn_offset", "op": "Const", "attr": {"dtype": {"type": "DT_FLOAT"}, "value": {"tensor": {"dtype": "DT_FLOAT", "tensorShape": {"dim": [{"size": "384"}]}}}}}, {"name": "StatefulPartitionedCall/sequential_3/keras_layer_1/StatefulPartitionedCall/StatefulPartitionedCall/StatefulPartitionedCall/predict/MobilenetV2/expanded_conv_15/depthwise/depthwise_bn_offset", "op": "Const", "attr": {"dtype": {"type": "DT_FLOAT"}, "value": {"tensor": {"dtype": "DT_FLOAT", "tensorShape": {"dim": [{"size": "960"}]}}}}}, {"name": "StatefulPartitionedCall/sequential_3/keras_layer_1/StatefulPartitionedCall/StatefulPartitionedCall/StatefulPartitionedCall/predict/MobilenetV2/expanded_conv_7/depthwise/depthwise_weights", "op": "Const", "attr": {"dtype": {"type": "DT_FLOAT"}, "value": {"tensor": {"dtype": "DT_FLOAT", "tensorShape": {"dim": [{"size": "3"}, {"size": "3"}, {"size": "384"}, {"size": "1"}]}}}}}, {"name": "StatefulPartitionedCall/sequential_3/keras_layer_1/StatefulPartitionedCall/StatefulPartitionedCall/StatefulPartitionedCall/predict/MobilenetV2/expanded_conv_7/depthwise/depthwise_bn_offset", "op": "Const", "attr": {"dtype": {"type": "DT_FLOAT"}, "value": {"tensor": {"dtype": "DT_FLOAT", "tensorShape": {"dim": [{"size": "384"}]}}}}}, {"name": "StatefulPartitionedCall/sequential_3/keras_layer_1/StatefulPartitionedCall/StatefulPartitionedCall/StatefulPartitionedCall/predict/MobilenetV2/expanded_conv_7/project/Conv2D_weights", "op": "Const", "attr": {"dtype": {"type": "DT_FLOAT"}, "value": {"tensor": {"dtype": "DT_FLOAT", "tensorShape": {"dim": [{"size": "1"}, {"size": "1"}, {"size": "384"}, {"size": "64"}]}}}}}, {"name": "StatefulPartitionedCall/sequential_3/keras_layer_1/StatefulPartitionedCall/StatefulPartitionedCall/StatefulPartitionedCall/predict/MobilenetV2/expanded_conv_7/project/Conv2D_bn_offset", "op": "Const", "attr": {"dtype": {"type": "DT_FLOAT"}, "value": {"tensor": {"dtype": "DT_FLOAT", "tensorShape": {"dim": [{"size": "64"}]}}}}}, {"name": "StatefulPartitionedCall/sequential_3/keras_layer_1/StatefulPartitionedCall/StatefulPartitionedCall/StatefulPartitionedCall/predict/MobilenetV2/expanded_conv_8/expand/Conv2D_weights", "op": "Const", "attr": {"dtype": {"type": "DT_FLOAT"}, "value": {"tensor": {"dtype": "DT_FLOAT", "tensorShape": {"dim": [{"size": "1"}, {"size": "1"}, {"size": "64"}, {"size": "384"}]}}}}}, {"name": "StatefulPartitionedCall/sequential_3/keras_layer_1/StatefulPartitionedCall/StatefulPartitionedCall/StatefulPartitionedCall/predict/MobilenetV2/expanded_conv_8/expand/Conv2D_bn_offset", "op": "Const", "attr": {"dtype": {"type": "DT_FLOAT"}, "value": {"tensor": {"dtype": "DT_FLOAT", "tensorShape": {"dim": [{"size": "384"}]}}}}}, {"name": "StatefulPartitionedCall/sequential_3/keras_layer_1/StatefulPartitionedCall/StatefulPartitionedCall/StatefulPartitionedCall/predict/MobilenetV2/expanded_conv_15/project/Conv2D_weights", "op": "Const", "attr": {"dtype": {"type": "DT_FLOAT"}, "value": {"tensor": {"dtype": "DT_FLOAT", "tensorShape": {"dim": [{"size": "1"}, {"size": "1"}, {"size": "960"}, {"size": "160"}]}}}}}, {"name": "StatefulPartitionedCall/sequential_3/keras_layer_1/StatefulPartitionedCall/StatefulPartitionedCall/StatefulPartitionedCall/predict/MobilenetV2/expanded_conv_8/depthwise/depthwise_weights", "op": "Const", "attr": {"dtype": {"type": "DT_FLOAT"}, "value": {"tensor": {"dtype": "DT_FLOAT", "tensorShape": {"dim": [{"size": "3"}, {"size": "3"}, {"size": "384"}, {"size": "1"}]}}}}}, {"name": "StatefulPartitionedCall/sequential_3/keras_layer_1/StatefulPartitionedCall/StatefulPartitionedCall/StatefulPartitionedCall/predict/MobilenetV2/expanded_conv_8/depthwise/depthwise_bn_offset", "op": "Const", "attr": {"dtype": {"type": "DT_FLOAT"}, "value": {"tensor": {"dtype": "DT_FLOAT", "tensorShape": {"dim": [{"size": "384"}]}}}}}, {"name": "StatefulPartitionedCall/sequential_3/keras_layer_1/StatefulPartitionedCall/StatefulPartitionedCall/StatefulPartitionedCall/predict/MobilenetV2/expanded_conv_8/project/Conv2D_weights", "op": "Const", "attr": {"dtype": {"type": "DT_FLOAT"}, "value": {"tensor": {"dtype": "DT_FLOAT", "tensorShape": {"dim": [{"size": "1"}, {"size": "1"}, {"size": "384"}, {"size": "64"}]}}}}}, {"name": "StatefulPartitionedCall/sequential_3/keras_layer_1/StatefulPartitionedCall/StatefulPartitionedCall/StatefulPartitionedCall/predict/MobilenetV2/expanded_conv_8/project/Conv2D_bn_offset", "op": "Const", "attr": {"dtype": {"type": "DT_FLOAT"}, "value": {"tensor": {"dtype": "DT_FLOAT", "tensorShape": {"dim": [{"size": "64"}]}}}}}, {"name": "StatefulPartitionedCall/sequential_3/keras_layer_1/StatefulPartitionedCall/StatefulPartitionedCall/StatefulPartitionedCall/predict/MobilenetV2/expanded_conv_9/expand/Conv2D_weights", "op": "Const", "attr": {"dtype": {"type": "DT_FLOAT"}, "value": {"tensor": {"dtype": "DT_FLOAT", "tensorShape": {"dim": [{"size": "1"}, {"size": "1"}, {"size": "64"}, {"size": "384"}]}}}}}, {"name": "StatefulPartitionedCall/sequential_3/keras_layer_1/StatefulPartitionedCall/StatefulPartitionedCall/StatefulPartitionedCall/predict/MobilenetV2/expanded_conv_15/project/Conv2D_bn_offset", "op": "Const", "attr": {"dtype": {"type": "DT_FLOAT"}, "value": {"tensor": {"dtype": "DT_FLOAT", "tensorShape": {"dim": [{"size": "160"}]}}}}}, {"name": "StatefulPartitionedCall/sequential_3/keras_layer_1/StatefulPartitionedCall/StatefulPartitionedCall/StatefulPartitionedCall/predict/MobilenetV2/expanded_conv_9/expand/Conv2D_bn_offset", "op": "Const", "attr": {"dtype": {"type": "DT_FLOAT"}, "value": {"tensor": {"dtype": "DT_FLOAT", "tensorShape": {"dim": [{"size": "384"}]}}}}}, {"name": "StatefulPartitionedCall/sequential_3/keras_layer_1/StatefulPartitionedCall/StatefulPartitionedCall/StatefulPartitionedCall/predict/MobilenetV2/expanded_conv_9/depthwise/depthwise_weights", "op": "Const", "attr": {"dtype": {"type": "DT_FLOAT"}, "value": {"tensor": {"dtype": "DT_FLOAT", "tensorShape": {"dim": [{"size": "3"}, {"size": "3"}, {"size": "384"}, {"size": "1"}]}}}}}, {"name": "StatefulPartitionedCall/sequential_3/keras_layer_1/StatefulPartitionedCall/StatefulPartitionedCall/StatefulPartitionedCall/predict/MobilenetV2/expanded_conv_9/depthwise/depthwise_bn_offset", "op": "Const", "attr": {"dtype": {"type": "DT_FLOAT"}, "value": {"tensor": {"dtype": "DT_FLOAT", "tensorShape": {"dim": [{"size": "384"}]}}}}}, {"name": "StatefulPartitionedCall/sequential_3/keras_layer_1/StatefulPartitionedCall/StatefulPartitionedCall/StatefulPartitionedCall/predict/MobilenetV2/expanded_conv_9/project/Conv2D_weights", "op": "Const", "attr": {"dtype": {"type": "DT_FLOAT"}, "value": {"tensor": {"dtype": "DT_FLOAT", "tensorShape": {"dim": [{"size": "1"}, {"size": "1"}, {"size": "384"}, {"size": "64"}]}}}}}, {"name": "StatefulPartitionedCall/sequential_3/keras_layer_1/StatefulPartitionedCall/StatefulPartitionedCall/StatefulPartitionedCall/predict/MobilenetV2/expanded_conv_9/project/Conv2D_bn_offset", "op": "Const", "attr": {"dtype": {"type": "DT_FLOAT"}, "value": {"tensor": {"dtype": "DT_FLOAT", "tensorShape": {"dim": [{"size": "64"}]}}}}}, {"name": "StatefulPartitionedCall/sequential_3/keras_layer_1/StatefulPartitionedCall/StatefulPartitionedCall/StatefulPartitionedCall/predict/MobilenetV2/expanded_conv_10/expand/Conv2D_weights", "op": "Const", "attr": {"dtype": {"type": "DT_FLOAT"}, "value": {"tensor": {"dtype": "DT_FLOAT", "tensorShape": {"dim": [{"size": "1"}, {"size": "1"}, {"size": "64"}, {"size": "384"}]}}}}}, {"name": "StatefulPartitionedCall/sequential_3/keras_layer_1/StatefulPartitionedCall/StatefulPartitionedCall/StatefulPartitionedCall/predict/MobilenetV2/expanded_conv_16/expand/Conv2D_weights", "op": "Const", "attr": {"dtype": {"type": "DT_FLOAT"}, "value": {"tensor": {"dtype": "DT_FLOAT", "tensorShape": {"dim": [{"size": "1"}, {"size": "1"}, {"size": "160"}, {"size": "960"}]}}}}}, {"name": "StatefulPartitionedCall/sequential_3/keras_layer_1/StatefulPartitionedCall/StatefulPartitionedCall/StatefulPartitionedCall/predict/MobilenetV2/expanded_conv_10/expand/Conv2D_bn_offset", "op": "Const", "attr": {"dtype": {"type": "DT_FLOAT"}, "value": {"tensor": {"dtype": "DT_FLOAT", "tensorShape": {"dim": [{"size": "384"}]}}}}}, {"name": "StatefulPartitionedCall/sequential_3/keras_layer_1/StatefulPartitionedCall/StatefulPartitionedCall/StatefulPartitionedCall/predict/MobilenetV2/expanded_conv_10/depthwise/depthwise_weights", "op": "Const", "attr": {"dtype": {"type": "DT_FLOAT"}, "value": {"tensor": {"dtype": "DT_FLOAT", "tensorShape": {"dim": [{"size": "3"}, {"size": "3"}, {"size": "384"}, {"size": "1"}]}}}}}, {"name": "StatefulPartitionedCall/sequential_3/keras_layer_1/StatefulPartitionedCall/StatefulPartitionedCall/StatefulPartitionedCall/predict/MobilenetV2/expanded_conv_10/depthwise/depthwise_bn_offset", "op": "Const", "attr": {"dtype": {"type": "DT_FLOAT"}, "value": {"tensor": {"dtype": "DT_FLOAT", "tensorShape": {"dim": [{"size": "384"}]}}}}}, {"name": "StatefulPartitionedCall/sequential_3/keras_layer_1/StatefulPartitionedCall/StatefulPartitionedCall/StatefulPartitionedCall/predict/MobilenetV2/expanded_conv_10/project/Conv2D_weights", "op": "Const", "attr": {"dtype": {"type": "DT_FLOAT"}, "value": {"tensor": {"dtype": "DT_FLOAT", "tensorShape": {"dim": [{"size": "1"}, {"size": "1"}, {"size": "384"}, {"size": "96"}]}}}}}, {"name": "StatefulPartitionedCall/sequential_3/keras_layer_1/StatefulPartitionedCall/StatefulPartitionedCall/StatefulPartitionedCall/predict/MobilenetV2/expanded_conv_16/expand/Conv2D_bn_offset", "op": "Const", "attr": {"dtype": {"type": "DT_FLOAT"}, "value": {"tensor": {"dtype": "DT_FLOAT", "tensorShape": {"dim": [{"size": "960"}]}}}}}, {"name": "StatefulPartitionedCall/sequential_3/keras_layer_1/StatefulPartitionedCall/StatefulPartitionedCall/StatefulPartitionedCall/predict/MobilenetV2/expanded_conv_10/project/Conv2D_bn_offset", "op": "Const", "attr": {"dtype": {"type": "DT_FLOAT"}, "value": {"tensor": {"dtype": "DT_FLOAT", "tensorShape": {"dim": [{"size": "96"}]}}}}}, {"name": "StatefulPartitionedCall/sequential_3/keras_layer_1/StatefulPartitionedCall/StatefulPartitionedCall/StatefulPartitionedCall/predict/MobilenetV2/expanded_conv_11/expand/Conv2D_weights", "op": "Const", "attr": {"dtype": {"type": "DT_FLOAT"}, "value": {"tensor": {"dtype": "DT_FLOAT", "tensorShape": {"dim": [{"size": "1"}, {"size": "1"}, {"size": "96"}, {"size": "576"}]}}}}}, {"name": "StatefulPartitionedCall/sequential_3/keras_layer_1/StatefulPartitionedCall/StatefulPartitionedCall/StatefulPartitionedCall/predict/MobilenetV2/expanded_conv_11/expand/Conv2D_bn_offset", "op": "Const", "attr": {"dtype": {"type": "DT_FLOAT"}, "value": {"tensor": {"dtype": "DT_FLOAT", "tensorShape": {"dim": [{"size": "576"}]}}}}}, {"name": "StatefulPartitionedCall/sequential_3/keras_layer_1/StatefulPartitionedCall/StatefulPartitionedCall/StatefulPartitionedCall/predict/MobilenetV2/expanded_conv_11/depthwise/depthwise_weights", "op": "Const", "attr": {"dtype": {"type": "DT_FLOAT"}, "value": {"tensor": {"dtype": "DT_FLOAT", "tensorShape": {"dim": [{"size": "3"}, {"size": "3"}, {"size": "576"}, {"size": "1"}]}}}}}, {"name": "StatefulPartitionedCall/sequential_3/keras_layer_1/StatefulPartitionedCall/StatefulPartitionedCall/StatefulPartitionedCall/predict/MobilenetV2/expanded_conv_11/depthwise/depthwise_bn_offset", "op": "Const", "attr": {"dtype": {"type": "DT_FLOAT"}, "value": {"tensor": {"dtype": "DT_FLOAT", "tensorShape": {"dim": [{"size": "576"}]}}}}}, {"name": "StatefulPartitionedCall/sequential_3/keras_layer_1/StatefulPartitionedCall/StatefulPartitionedCall/StatefulPartitionedCall/predict/MobilenetV2/expanded_conv_11/project/Conv2D_weights", "op": "Const", "attr": {"dtype": {"type": "DT_FLOAT"}, "value": {"tensor": {"dtype": "DT_FLOAT", "tensorShape": {"dim": [{"size": "1"}, {"size": "1"}, {"size": "576"}, {"size": "96"}]}}}}}, {"name": "StatefulPartitionedCall/sequential_3/keras_layer_1/StatefulPartitionedCall/StatefulPartitionedCall/StatefulPartitionedCall/predict/MobilenetV2/expanded_conv_16/depthwise/depthwise_weights", "op": "Const", "attr": {"dtype": {"type": "DT_FLOAT"}, "value": {"tensor": {"dtype": "DT_FLOAT", "tensorShape": {"dim": [{"size": "3"}, {"size": "3"}, {"size": "960"}, {"size": "1"}]}}}}}, {"name": "StatefulPartitionedCall/sequential_3/keras_layer_1/StatefulPartitionedCall/StatefulPartitionedCall/StatefulPartitionedCall/predict/MobilenetV2/expanded_conv_11/project/Conv2D_bn_offset", "op": "Const", "attr": {"dtype": {"type": "DT_FLOAT"}, "value": {"tensor": {"dtype": "DT_FLOAT", "tensorShape": {"dim": [{"size": "96"}]}}}}}, {"name": "StatefulPartitionedCall/sequential_3/keras_layer_1/StatefulPartitionedCall/StatefulPartitionedCall/StatefulPartitionedCall/predict/MobilenetV2/expanded_conv_12/expand/Conv2D_weights", "op": "Const", "attr": {"dtype": {"type": "DT_FLOAT"}, "value": {"tensor": {"dtype": "DT_FLOAT", "tensorShape": {"dim": [{"size": "1"}, {"size": "1"}, {"size": "96"}, {"size": "576"}]}}}}}, {"name": "StatefulPartitionedCall/sequential_3/keras_layer_1/StatefulPartitionedCall/StatefulPartitionedCall/StatefulPartitionedCall/predict/MobilenetV2/expanded_conv_12/expand/Conv2D_bn_offset", "op": "Const", "attr": {"value": {"tensor": {"dtype": "DT_FLOAT", "tensorShape": {"dim": [{"size": "576"}]}}}, "dtype": {"type": "DT_FLOAT"}}}, {"name": "StatefulPartitionedCall/sequential_3/keras_layer_1/StatefulPartitionedCall/StatefulPartitionedCall/StatefulPartitionedCall/predict/MobilenetV2/expanded_conv_16/depthwise/depthwise_bn_offset", "op": "Const", "attr": {"dtype": {"type": "DT_FLOAT"}, "value": {"tensor": {"dtype": "DT_FLOAT", "tensorShape": {"dim": [{"size": "960"}]}}}}}, {"name": "StatefulPartitionedCall/sequential_3/keras_layer_1/StatefulPartitionedCall/StatefulPartitionedCall/StatefulPartitionedCall/predict/MobilenetV2/expanded_conv_12/depthwise/depthwise_weights", "op": "Const", "attr": {"dtype": {"type": "DT_FLOAT"}, "value": {"tensor": {"dtype": "DT_FLOAT", "tensorShape": {"dim": [{"size": "3"}, {"size": "3"}, {"size": "576"}, {"size": "1"}]}}}}}, {"name": "StatefulPartitionedCall/sequential_3/keras_layer_1/StatefulPartitionedCall/StatefulPartitionedCall/StatefulPartitionedCall/predict/MobilenetV2/expanded_conv_12/depthwise/depthwise_bn_offset", "op": "Const", "attr": {"dtype": {"type": "DT_FLOAT"}, "value": {"tensor": {"dtype": "DT_FLOAT", "tensorShape": {"dim": [{"size": "576"}]}}}}}, {"name": "StatefulPartitionedCall/sequential_3/keras_layer_1/StatefulPartitionedCall/StatefulPartitionedCall/StatefulPartitionedCall/predict/MobilenetV2/expanded_conv_12/project/Conv2D_weights", "op": "Const", "attr": {"dtype": {"type": "DT_FLOAT"}, "value": {"tensor": {"dtype": "DT_FLOAT", "tensorShape": {"dim": [{"size": "1"}, {"size": "1"}, {"size": "576"}, {"size": "96"}]}}}}}, {"name": "StatefulPartitionedCall/sequential_3/keras_layer_1/StatefulPartitionedCall/StatefulPartitionedCall/StatefulPartitionedCall/predict/MobilenetV2/expanded_conv_12/project/Conv2D_bn_offset", "op": "Const", "attr": {"dtype": {"type": "DT_FLOAT"}, "value": {"tensor": {"dtype": "DT_FLOAT", "tensorShape": {"dim": [{"size": "96"}]}}}}}, {"name": "StatefulPartitionedCall/sequential_3/keras_layer_1/StatefulPartitionedCall/StatefulPartitionedCall/StatefulPartitionedCall/predict/MobilenetV2/expanded_conv_13/expand/Conv2D_weights", "op": "Const", "attr": {"value": {"tensor": {"dtype": "DT_FLOAT", "tensorShape": {"dim": [{"size": "1"}, {"size": "1"}, {"size": "96"}, {"size": "576"}]}}}, "dtype": {"type": "DT_FLOAT"}}}, {"name": "StatefulPartitionedCall/sequential_3/keras_layer_1/StatefulPartitionedCall/StatefulPartitionedCall/StatefulPartitionedCall/predict/MobilenetV2/expanded_conv_13/expand/Conv2D_bn_offset", "op": "Const", "attr": {"dtype": {"type": "DT_FLOAT"}, "value": {"tensor": {"dtype": "DT_FLOAT", "tensorShape": {"dim": [{"size": "576"}]}}}}}, {"name": "StatefulPartitionedCall/sequential_3/keras_layer_1/StatefulPartitionedCall/StatefulPartitionedCall/StatefulPartitionedCall/predict/MobilenetV2/expanded_conv_16/project/Conv2D_weights", "op": "Const", "attr": {"dtype": {"type": "DT_FLOAT"}, "value": {"tensor": {"dtype": "DT_FLOAT", "tensorShape": {"dim": [{"size": "1"}, {"size": "1"}, {"size": "960"}, {"size": "320"}]}}}}}, {"name": "StatefulPartitionedCall/sequential_3/keras_layer_1/StatefulPartitionedCall/StatefulPartitionedCall/StatefulPartitionedCall/predict/MobilenetV2/expanded_conv_13/depthwise/depthwise_weights", "op": "Const", "attr": {"dtype": {"type": "DT_FLOAT"}, "value": {"tensor": {"dtype": "DT_FLOAT", "tensorShape": {"dim": [{"size": "3"}, {"size": "3"}, {"size": "576"}, {"size": "1"}]}}}}}, {"name": "StatefulPartitionedCall/sequential_3/keras_layer_1/StatefulPartitionedCall/StatefulPartitionedCall/StatefulPartitionedCall/predict/MobilenetV2/expanded_conv_13/depthwise/depthwise_bn_offset", "op": "Const", "attr": {"dtype": {"type": "DT_FLOAT"}, "value": {"tensor": {"dtype": "DT_FLOAT", "tensorShape": {"dim": [{"size": "576"}]}}}}}, {"name": "StatefulPartitionedCall/sequential_3/keras_layer_1/StatefulPartitionedCall/StatefulPartitionedCall/StatefulPartitionedCall/predict/MobilenetV2/expanded_conv_13/project/Conv2D_weights", "op": "Const", "attr": {"value": {"tensor": {"dtype": "DT_FLOAT", "tensorShape": {"dim": [{"size": "1"}, {"size": "1"}, {"size": "576"}, {"size": "160"}]}}}, "dtype": {"type": "DT_FLOAT"}}}, {"name": "StatefulPartitionedCall/sequential_3/keras_layer_1/StatefulPartitionedCall/StatefulPartitionedCall/StatefulPartitionedCall/predict/MobilenetV2/expanded_conv_13/project/Conv2D_bn_offset", "op": "Const", "attr": {"dtype": {"type": "DT_FLOAT"}, "value": {"tensor": {"dtype": "DT_FLOAT", "tensorShape": {"dim": [{"size": "160"}]}}}}}, {"name": "StatefulPartitionedCall/sequential_3/keras_layer_1/StatefulPartitionedCall/StatefulPartitionedCall/StatefulPartitionedCall/predict/hub_input/Mul/y", "op": "Const", "input": ["^input_3"], "attr": {"value": {"tensor": {"dtype": "DT_FLOAT", "tensorShape": {}}}, "dtype": {"type": "DT_FLOAT"}}}, {"name": "StatefulPartitionedCall/sequential_3/keras_layer_1/StatefulPartitionedCall/StatefulPartitionedCall/StatefulPartitionedCall/predict/hub_input/Sub/y", "op": "Const", "input": ["^input_3"], "attr": {"value": {"tensor": {"dtype": "DT_FLOAT", "tensorShape": {}}}, "dtype": {"type": "DT_FLOAT"}}}, {"name": "StatefulPartitionedCall/sequential_3/keras_layer_1/StatefulPartitionedCall/StatefulPartitionedCall/StatefulPartitionedCall/predict/hub_input/Mul", "op": "Mul", "input": ["input_3", "StatefulPartitionedCall/sequential_3/keras_layer_1/StatefulPartitionedCall/StatefulPartitionedCall/StatefulPartitionedCall/predict/hub_input/Mul/y"], "attr": {"T": {"type": "DT_FLOAT"}}}, {"name": "StatefulPartitionedCall/sequential_3/keras_layer_1/StatefulPartitionedCall/StatefulPartitionedCall/StatefulPartitionedCall/predict/hub_input/Sub", "op": "Sub", "input": ["StatefulPartitionedCall/sequential_3/keras_layer_1/StatefulPartitionedCall/StatefulPartitionedCall/StatefulPartitionedCall/predict/hub_input/Mul", "StatefulPartitionedCall/sequential_3/keras_layer_1/StatefulPartitionedCall/StatefulPartitionedCall/StatefulPartitionedCall/predict/hub_input/Sub/y"], "attr": {"T": {"type": "DT_FLOAT"}}}, {"name": "StatefulPartitionedCall/sequential_3/keras_layer_1/StatefulPartitionedCall/StatefulPartitionedCall/StatefulPartitionedCall/predict/MobilenetV2/Conv/Relu6", "op": "_FusedConv2D", "input": ["StatefulPartitionedCall/sequential_3/keras_layer_1/StatefulPartitionedCall/StatefulPartitionedCall/StatefulPartitionedCall/predict/hub_input/Sub", "StatefulPartitionedCall/sequential_3/keras_layer_1/StatefulPartitionedCall/StatefulPartitionedCall/StatefulPartitionedCall/predict/MobilenetV2/Conv/Conv2D_weights", "StatefulPartitionedCall/sequential_3/keras_layer_1/StatefulPartitionedCall/StatefulPartitionedCall/StatefulPartitionedCall/predict/MobilenetV2/Conv/Conv2D_bn_offset"], "device": "/device:CPU:0", "attr": {"dilations": {"list": {"i": ["1", "1", "1", "1"]}}, "padding": {"s": "U0FNRQ=="}, "use_cudnn_on_gpu": {"b": true}, "epsilon": {"f": 0.0}, "T": {"type": "DT_FLOAT"}, "explicit_paddings": {"list": {}}, "fused_ops": {"list": {"s": ["Qmlhc0FkZA==", "UmVsdTY="]}}, "num_args": {"i": "1"}, "data_format": {"s": "TkhXQw=="}, "strides": {"list": {"i": ["1", "2", "2", "1"]}}}}, {"name": "StatefulPartitionedCall/sequential_3/keras_layer_1/StatefulPartitionedCall/StatefulPartitionedCall/StatefulPartitionedCall/predict/MobilenetV2/expanded_conv/depthwise/depthwise", "op": "FusedDepthwiseConv2dNative", "input": ["StatefulPartitionedCall/sequential_3/keras_layer_1/StatefulPartitionedCall/StatefulPartitionedCall/StatefulPartitionedCall/predict/MobilenetV2/Conv/Relu6", "StatefulPartitionedCall/sequential_3/keras_layer_1/StatefulPartitionedCall/StatefulPartitionedCall/StatefulPartitionedCall/predict/MobilenetV2/expanded_conv/depthwise/depthwise_weights", "StatefulPartitionedCall/sequential_3/keras_layer_1/StatefulPartitionedCall/StatefulPartitionedCall/StatefulPartitionedCall/predict/MobilenetV2/expanded_conv/depthwise/depthwise_bn_offset"], "attr": {"padding": {"s": "U0FNRQ=="}, "T": {"type": "DT_FLOAT"}, "fused_ops": {"list": {"s": ["Qmlhc0FkZA==", "UmVsdTY="]}}, "data_format": {"s": "TkhXQw=="}, "explicit_paddings": {"list": {}}, "num_args": {"i": "1"}, "dilations": {"list": {"i": ["1", "1", "1", "1"]}}, "strides": {"list": {"i": ["1", "1", "1", "1"]}}}}, {"name": "StatefulPartitionedCall/sequential_3/keras_layer_1/StatefulPartitionedCall/StatefulPartitionedCall/StatefulPartitionedCall/predict/MobilenetV2/expanded_conv/project/BatchNorm/FusedBatchNormV3", "op": "_FusedConv2D", "input": ["StatefulPartitionedCall/sequential_3/keras_layer_1/StatefulPartitionedCall/StatefulPartitionedCall/StatefulPartitionedCall/predict/MobilenetV2/expanded_conv/depthwise/depthwise", "StatefulPartitionedCall/sequential_3/keras_layer_1/StatefulPartitionedCall/StatefulPartitionedCall/StatefulPartitionedCall/predict/MobilenetV2/expanded_conv/project/Conv2D_weights", "StatefulPartitionedCall/sequential_3/keras_layer_1/StatefulPartitionedCall/StatefulPartitionedCall/StatefulPartitionedCall/predict/MobilenetV2/expanded_conv/project/Conv2D_bn_offset"], "device": "/device:CPU:0", "attr": {"padding": {"s": "U0FNRQ=="}, "data_format": {"s": "TkhXQw=="}, "T": {"type": "DT_FLOAT"}, "explicit_paddings": {"list": {}}, "fused_ops": {"list": {"s": ["Qmlhc0FkZA=="]}}, "num_args": {"i": "1"}, "dilations": {"list": {"i": ["1", "1", "1", "1"]}}, "strides": {"list": {"i": ["1", "1", "1", "1"]}}, "use_cudnn_on_gpu": {"b": true}, "epsilon": {"f": 0.0}}}, {"name": "StatefulPartitionedCall/sequential_3/keras_layer_1/StatefulPartitionedCall/StatefulPartitionedCall/StatefulPartitionedCall/predict/MobilenetV2/expanded_conv_1/expand/Relu6", "op": "_FusedConv2D", "input": ["StatefulPartitionedCall/sequential_3/keras_layer_1/StatefulPartitionedCall/StatefulPartitionedCall/StatefulPartitionedCall/predict/MobilenetV2/expanded_conv/project/BatchNorm/FusedBatchNormV3", "StatefulPartitionedCall/sequential_3/keras_layer_1/StatefulPartitionedCall/StatefulPartitionedCall/StatefulPartitionedCall/predict/MobilenetV2/expanded_conv_1/expand/Conv2D_weights", "StatefulPartitionedCall/sequential_3/keras_layer_1/StatefulPartitionedCall/StatefulPartitionedCall/StatefulPartitionedCall/predict/MobilenetV2/expanded_conv_1/expand/Conv2D_bn_offset"], "device": "/device:CPU:0", "attr": {"dilations": {"list": {"i": ["1", "1", "1", "1"]}}, "use_cudnn_on_gpu": {"b": true}, "T": {"type": "DT_FLOAT"}, "padding": {"s": "U0FNRQ=="}, "explicit_paddings": {"list": {}}, "num_args": {"i": "1"}, "data_format": {"s": "TkhXQw=="}, "epsilon": {"f": 0.0}, "strides": {"list": {"i": ["1", "1", "1", "1"]}}, "fused_ops": {"list": {"s": ["Qmlhc0FkZA==", "UmVsdTY="]}}}}, {"name": "StatefulPartitionedCall/sequential_3/keras_layer_1/StatefulPartitionedCall/StatefulPartitionedCall/StatefulPartitionedCall/predict/MobilenetV2/expanded_conv_1/depthwise/depthwise", "op": "FusedDepthwiseConv2dNative", "input": ["StatefulPartitionedCall/sequential_3/keras_layer_1/StatefulPartitionedCall/StatefulPartitionedCall/StatefulPartitionedCall/predict/MobilenetV2/expanded_conv_1/expand/Relu6", "StatefulPartitionedCall/sequential_3/keras_layer_1/StatefulPartitionedCall/StatefulPartitionedCall/StatefulPartitionedCall/predict/MobilenetV2/expanded_conv_1/depthwise/depthwise_weights", "StatefulPartitionedCall/sequential_3/keras_layer_1/StatefulPartitionedCall/StatefulPartitionedCall/StatefulPartitionedCall/predict/MobilenetV2/expanded_conv_1/depthwise/depthwise_bn_offset"], "attr": {"dilations": {"list": {"i": ["1", "1", "1", "1"]}}, "strides": {"list": {"i": ["1", "2", "2", "1"]}}, "fused_ops": {"list": {"s": ["Qmlhc0FkZA==", "UmVsdTY="]}}, "explicit_paddings": {"list": {}}, "T": {"type": "DT_FLOAT"}, "padding": {"s": "U0FNRQ=="}, "data_format": {"s": "TkhXQw=="}, "num_args": {"i": "1"}}}, {"name": "StatefulPartitionedCall/sequential_3/keras_layer_1/StatefulPartitionedCall/StatefulPartitionedCall/StatefulPartitionedCall/predict/MobilenetV2/expanded_conv_1/project/BatchNorm/FusedBatchNormV3", "op": "_FusedConv2D", "input": ["StatefulPartitionedCall/sequential_3/keras_layer_1/StatefulPartitionedCall/StatefulPartitionedCall/StatefulPartitionedCall/predict/MobilenetV2/expanded_conv_1/depthwise/depthwise", "StatefulPartitionedCall/sequential_3/keras_layer_1/StatefulPartitionedCall/StatefulPartitionedCall/StatefulPartitionedCall/predict/MobilenetV2/expanded_conv_1/project/Conv2D_weights", "StatefulPartitionedCall/sequential_3/keras_layer_1/StatefulPartitionedCall/StatefulPartitionedCall/StatefulPartitionedCall/predict/MobilenetV2/expanded_conv_1/project/Conv2D_bn_offset"], "device": "/device:CPU:0", "attr": {"strides": {"list": {"i": ["1", "1", "1", "1"]}}, "fused_ops": {"list": {"s": ["Qmlhc0FkZA=="]}}, "dilations": {"list": {"i": ["1", "1", "1", "1"]}}, "use_cudnn_on_gpu": {"b": true}, "epsilon": {"f": 0.0}, "T": {"type": "DT_FLOAT"}, "padding": {"s": "U0FNRQ=="}, "num_args": {"i": "1"}, "data_format": {"s": "TkhXQw=="}, "explicit_paddings": {"list": {}}}}, {"name": "StatefulPartitionedCall/sequential_3/keras_layer_1/StatefulPartitionedCall/StatefulPartitionedCall/StatefulPartitionedCall/predict/MobilenetV2/expanded_conv_2/expand/Relu6", "op": "_FusedConv2D", "input": ["StatefulPartitionedCall/sequential_3/keras_layer_1/StatefulPartitionedCall/StatefulPartitionedCall/StatefulPartitionedCall/predict/MobilenetV2/expanded_conv_1/project/BatchNorm/FusedBatchNormV3", "StatefulPartitionedCall/sequential_3/keras_layer_1/StatefulPartitionedCall/StatefulPartitionedCall/StatefulPartitionedCall/predict/MobilenetV2/expanded_conv_2/expand/Conv2D_weights", "StatefulPartitionedCall/sequential_3/keras_layer_1/StatefulPartitionedCall/StatefulPartitionedCall/StatefulPartitionedCall/predict/MobilenetV2/expanded_conv_2/expand/Conv2D_bn_offset"], "device": "/device:CPU:0", "attr": {"use_cudnn_on_gpu": {"b": true}, "epsilon": {"f": 0.0}, "T": {"type": "DT_FLOAT"}, "strides": {"list": {"i": ["1", "1", "1", "1"]}}, "data_format": {"s": "TkhXQw=="}, "explicit_paddings": {"list": {}}, "fused_ops": {"list": {"s": ["Qmlhc0FkZA==", "UmVsdTY="]}}, "num_args": {"i": "1"}, "dilations": {"list": {"i": ["1", "1", "1", "1"]}}, "padding": {"s": "U0FNRQ=="}}}, {"name": "StatefulPartitionedCall/sequential_3/keras_layer_1/StatefulPartitionedCall/StatefulPartitionedCall/StatefulPartitionedCall/predict/MobilenetV2/expanded_conv_2/depthwise/depthwise", "op": "FusedDepthwiseConv2dNative", "input": ["StatefulPartitionedCall/sequential_3/keras_layer_1/StatefulPartitionedCall/StatefulPartitionedCall/StatefulPartitionedCall/predict/MobilenetV2/expanded_conv_2/expand/Relu6", "StatefulPartitionedCall/sequential_3/keras_layer_1/StatefulPartitionedCall/StatefulPartitionedCall/StatefulPartitionedCall/predict/MobilenetV2/expanded_conv_2/depthwise/depthwise_weights", "StatefulPartitionedCall/sequential_3/keras_layer_1/StatefulPartitionedCall/StatefulPartitionedCall/StatefulPartitionedCall/predict/MobilenetV2/expanded_conv_2/depthwise/depthwise_bn_offset"], "attr": {"T": {"type": "DT_FLOAT"}, "strides": {"list": {"i": ["1", "1", "1", "1"]}}, "data_format": {"s": "TkhXQw=="}, "explicit_paddings": {"list": {}}, "num_args": {"i": "1"}, "fused_ops": {"list": {"s": ["Qmlhc0FkZA==", "UmVsdTY="]}}, "padding": {"s": "U0FNRQ=="}, "dilations": {"list": {"i": ["1", "1", "1", "1"]}}}}, {"name": "StatefulPartitionedCall/sequential_3/keras_layer_1/StatefulPartitionedCall/StatefulPartitionedCall/StatefulPartitionedCall/predict/MobilenetV2/expanded_conv_2/project/BatchNorm/FusedBatchNormV3", "op": "_FusedConv2D", "input": ["StatefulPartitionedCall/sequential_3/keras_layer_1/StatefulPartitionedCall/StatefulPartitionedCall/StatefulPartitionedCall/predict/MobilenetV2/expanded_conv_2/depthwise/depthwise", "StatefulPartitionedCall/sequential_3/keras_layer_1/StatefulPartitionedCall/StatefulPartitionedCall/StatefulPartitionedCall/predict/MobilenetV2/expanded_conv_2/project/Conv2D_weights", "StatefulPartitionedCall/sequential_3/keras_layer_1/StatefulPartitionedCall/StatefulPartitionedCall/StatefulPartitionedCall/predict/MobilenetV2/expanded_conv_2/project/Conv2D_bn_offset"], "device": "/device:CPU:0", "attr": {"explicit_paddings": {"list": {}}, "fused_ops": {"list": {"s": ["Qmlhc0FkZA=="]}}, "padding": {"s": "U0FNRQ=="}, "num_args": {"i": "1"}, "data_format": {"s": "TkhXQw=="}, "T": {"type": "DT_FLOAT"}, "dilations": {"list": {"i": ["1", "1", "1", "1"]}}, "use_cudnn_on_gpu": {"b": true}, "epsilon": {"f": 0.0}, "strides": {"list": {"i": ["1", "1", "1", "1"]}}}}, {"name": "StatefulPartitionedCall/sequential_3/keras_layer_1/StatefulPartitionedCall/StatefulPartitionedCall/StatefulPartitionedCall/predict/MobilenetV2/expanded_conv_2/add", "op": "AddV2", "input": ["StatefulPartitionedCall/sequential_3/keras_layer_1/StatefulPartitionedCall/StatefulPartitionedCall/StatefulPartitionedCall/predict/MobilenetV2/expanded_conv_2/project/BatchNorm/FusedBatchNormV3", "StatefulPartitionedCall/sequential_3/keras_layer_1/StatefulPartitionedCall/StatefulPartitionedCall/StatefulPartitionedCall/predict/MobilenetV2/expanded_conv_1/project/BatchNorm/FusedBatchNormV3"], "attr": {"T": {"type": "DT_FLOAT"}}}, {"name": "StatefulPartitionedCall/sequential_3/keras_layer_1/StatefulPartitionedCall/StatefulPartitionedCall/StatefulPartitionedCall/predict/MobilenetV2/expanded_conv_3/expand/Relu6", "op": "_FusedConv2D", "input": ["StatefulPartitionedCall/sequential_3/keras_layer_1/StatefulPartitionedCall/StatefulPartitionedCall/StatefulPartitionedCall/predict/MobilenetV2/expanded_conv_2/add", "StatefulPartitionedCall/sequential_3/keras_layer_1/StatefulPartitionedCall/StatefulPartitionedCall/StatefulPartitionedCall/predict/MobilenetV2/expanded_conv_3/expand/Conv2D_weights", "StatefulPartitionedCall/sequential_3/keras_layer_1/StatefulPartitionedCall/StatefulPartitionedCall/StatefulPartitionedCall/predict/MobilenetV2/expanded_conv_3/expand/Conv2D_bn_offset"], "device": "/device:CPU:0", "attr": {"padding": {"s": "U0FNRQ=="}, "T": {"type": "DT_FLOAT"}, "epsilon": {"f": 0.0}, "fused_ops": {"list": {"s": ["Qmlhc0FkZA==", "UmVsdTY="]}}, "explicit_paddings": {"list": {}}, "data_format": {"s": "TkhXQw=="}, "num_args": {"i": "1"}, "strides": {"list": {"i": ["1", "1", "1", "1"]}}, "use_cudnn_on_gpu": {"b": true}, "dilations": {"list": {"i": ["1", "1", "1", "1"]}}}}, {"name": "StatefulPartitionedCall/sequential_3/keras_layer_1/StatefulPartitionedCall/StatefulPartitionedCall/StatefulPartitionedCall/predict/MobilenetV2/expanded_conv_3/depthwise/depthwise", "op": "FusedDepthwiseConv2dNative", "input": ["StatefulPartitionedCall/sequential_3/keras_layer_1/StatefulPartitionedCall/StatefulPartitionedCall/StatefulPartitionedCall/predict/MobilenetV2/expanded_conv_3/expand/Relu6", "StatefulPartitionedCall/sequential_3/keras_layer_1/StatefulPartitionedCall/StatefulPartitionedCall/StatefulPartitionedCall/predict/MobilenetV2/expanded_conv_3/depthwise/depthwise_weights", "StatefulPartitionedCall/sequential_3/keras_layer_1/StatefulPartitionedCall/StatefulPartitionedCall/StatefulPartitionedCall/predict/MobilenetV2/expanded_conv_3/depthwise/depthwise_bn_offset"], "attr": {"explicit_paddings": {"list": {}}, "num_args": {"i": "1"}, "data_format": {"s": "TkhXQw=="}, "fused_ops": {"list": {"s": ["Qmlhc0FkZA==", "UmVsdTY="]}}, "dilations": {"list": {"i": ["1", "1", "1", "1"]}}, "padding": {"s": "U0FNRQ=="}, "T": {"type": "DT_FLOAT"}, "strides": {"list": {"i": ["1", "2", "2", "1"]}}}}, {"name": "StatefulPartitionedCall/sequential_3/keras_layer_1/StatefulPartitionedCall/StatefulPartitionedCall/StatefulPartitionedCall/predict/MobilenetV2/expanded_conv_3/project/BatchNorm/FusedBatchNormV3", "op": "_FusedConv2D", "input": ["StatefulPartitionedCall/sequential_3/keras_layer_1/StatefulPartitionedCall/StatefulPartitionedCall/StatefulPartitionedCall/predict/MobilenetV2/expanded_conv_3/depthwise/depthwise", "StatefulPartitionedCall/sequential_3/keras_layer_1/StatefulPartitionedCall/StatefulPartitionedCall/StatefulPartitionedCall/predict/MobilenetV2/expanded_conv_3/project/Conv2D_weights", "StatefulPartitionedCall/sequential_3/keras_layer_1/StatefulPartitionedCall/StatefulPartitionedCall/StatefulPartitionedCall/predict/MobilenetV2/expanded_conv_3/project/Conv2D_bn_offset"], "device": "/device:CPU:0", "attr": {"fused_ops": {"list": {"s": ["Qmlhc0FkZA=="]}}, "num_args": {"i": "1"}, "dilations": {"list": {"i": ["1", "1", "1", "1"]}}, "strides": {"list": {"i": ["1", "1", "1", "1"]}}, "use_cudnn_on_gpu": {"b": true}, "epsilon": {"f": 0.0}, "padding": {"s": "U0FNRQ=="}, "data_format": {"s": "TkhXQw=="}, "T": {"type": "DT_FLOAT"}, "explicit_paddings": {"list": {}}}}, {"name": "StatefulPartitionedCall/sequential_3/keras_layer_1/StatefulPartitionedCall/StatefulPartitionedCall/StatefulPartitionedCall/predict/MobilenetV2/expanded_conv_4/expand/Relu6", "op": "_FusedConv2D", "input": ["StatefulPartitionedCall/sequential_3/keras_layer_1/StatefulPartitionedCall/StatefulPartitionedCall/StatefulPartitionedCall/predict/MobilenetV2/expanded_conv_3/project/BatchNorm/FusedBatchNormV3", "StatefulPartitionedCall/sequential_3/keras_layer_1/StatefulPartitionedCall/StatefulPartitionedCall/StatefulPartitionedCall/predict/MobilenetV2/expanded_conv_4/expand/Conv2D_weights", "StatefulPartitionedCall/sequential_3/keras_layer_1/StatefulPartitionedCall/StatefulPartitionedCall/StatefulPartitionedCall/predict/MobilenetV2/expanded_conv_4/expand/Conv2D_bn_offset"], "device": "/device:CPU:0", "attr": {"strides": {"list": {"i": ["1", "1", "1", "1"]}}, "fused_ops": {"list": {"s": ["Qmlhc0FkZA==", "UmVsdTY="]}}, "data_format": {"s": "TkhXQw=="}, "explicit_paddings": {"list": {}}, "num_args": {"i": "1"}, "T": {"type": "DT_FLOAT"}, "padding": {"s": "U0FNRQ=="}, "use_cudnn_on_gpu": {"b": true}, "dilations": {"list": {"i": ["1", "1", "1", "1"]}}, "epsilon": {"f": 0.0}}}, {"name": "StatefulPartitionedCall/sequential_3/keras_layer_1/StatefulPartitionedCall/StatefulPartitionedCall/StatefulPartitionedCall/predict/MobilenetV2/expanded_conv_4/depthwise/depthwise", "op": "FusedDepthwiseConv2dNative", "input": ["StatefulPartitionedCall/sequential_3/keras_layer_1/StatefulPartitionedCall/StatefulPartitionedCall/StatefulPartitionedCall/predict/MobilenetV2/expanded_conv_4/expand/Relu6", "StatefulPartitionedCall/sequential_3/keras_layer_1/StatefulPartitionedCall/StatefulPartitionedCall/StatefulPartitionedCall/predict/MobilenetV2/expanded_conv_4/depthwise/depthwise_weights", "StatefulPartitionedCall/sequential_3/keras_layer_1/StatefulPartitionedCall/StatefulPartitionedCall/StatefulPartitionedCall/predict/MobilenetV2/expanded_conv_4/depthwise/depthwise_bn_offset"], "attr": {"padding": {"s": "U0FNRQ=="}, "T": {"type": "DT_FLOAT"}, "fused_ops": {"list": {"s": ["Qmlhc0FkZA==", "UmVsdTY="]}}, "data_format": {"s": "TkhXQw=="}, "explicit_paddings": {"list": {}}, "dilations": {"list": {"i": ["1", "1", "1", "1"]}}, "num_args": {"i": "1"}, "strides": {"list": {"i": ["1", "1", "1", "1"]}}}}, {"name": "StatefulPartitionedCall/sequential_3/keras_layer_1/StatefulPartitionedCall/StatefulPartitionedCall/StatefulPartitionedCall/predict/MobilenetV2/expanded_conv_4/project/BatchNorm/FusedBatchNormV3", "op": "_FusedConv2D", "input": ["StatefulPartitionedCall/sequential_3/keras_layer_1/StatefulPartitionedCall/StatefulPartitionedCall/StatefulPartitionedCall/predict/MobilenetV2/expanded_conv_4/depthwise/depthwise", "StatefulPartitionedCall/sequential_3/keras_layer_1/StatefulPartitionedCall/StatefulPartitionedCall/StatefulPartitionedCall/predict/MobilenetV2/expanded_conv_4/project/Conv2D_weights", "StatefulPartitionedCall/sequential_3/keras_layer_1/StatefulPartitionedCall/StatefulPartitionedCall/StatefulPartitionedCall/predict/MobilenetV2/expanded_conv_4/project/Conv2D_bn_offset"], "device": "/device:CPU:0", "attr": {"strides": {"list": {"i": ["1", "1", "1", "1"]}}, "fused_ops": {"list": {"s": ["Qmlhc0FkZA=="]}}, "padding": {"s": "U0FNRQ=="}, "data_format": {"s": "TkhXQw=="}, "explicit_paddings": {"list": {}}, "num_args": {"i": "1"}, "T": {"type": "DT_FLOAT"}, "dilations": {"list": {"i": ["1", "1", "1", "1"]}}, "epsilon": {"f": 0.0}, "use_cudnn_on_gpu": {"b": true}}}, {"name": "StatefulPartitionedCall/sequential_3/keras_layer_1/StatefulPartitionedCall/StatefulPartitionedCall/StatefulPartitionedCall/predict/MobilenetV2/expanded_conv_4/add", "op": "AddV2", "input": ["StatefulPartitionedCall/sequential_3/keras_layer_1/StatefulPartitionedCall/StatefulPartitionedCall/StatefulPartitionedCall/predict/MobilenetV2/expanded_conv_4/project/BatchNorm/FusedBatchNormV3", "StatefulPartitionedCall/sequential_3/keras_layer_1/StatefulPartitionedCall/StatefulPartitionedCall/StatefulPartitionedCall/predict/MobilenetV2/expanded_conv_3/project/BatchNorm/FusedBatchNormV3"], "attr": {"T": {"type": "DT_FLOAT"}}}, {"name": "StatefulPartitionedCall/sequential_3/keras_layer_1/StatefulPartitionedCall/StatefulPartitionedCall/StatefulPartitionedCall/predict/MobilenetV2/expanded_conv_5/expand/Relu6", "op": "_FusedConv2D", "input": ["StatefulPartitionedCall/sequential_3/keras_layer_1/StatefulPartitionedCall/StatefulPartitionedCall/StatefulPartitionedCall/predict/MobilenetV2/expanded_conv_4/add", "StatefulPartitionedCall/sequential_3/keras_layer_1/StatefulPartitionedCall/StatefulPartitionedCall/StatefulPartitionedCall/predict/MobilenetV2/expanded_conv_5/expand/Conv2D_weights", "StatefulPartitionedCall/sequential_3/keras_layer_1/StatefulPartitionedCall/StatefulPartitionedCall/StatefulPartitionedCall/predict/MobilenetV2/expanded_conv_5/expand/Conv2D_bn_offset"], "device": "/device:CPU:0", "attr": {"T": {"type": "DT_FLOAT"}, "num_args": {"i": "1"}, "fused_ops": {"list": {"s": ["Qmlhc0FkZA==", "UmVsdTY="]}}, "dilations": {"list": {"i": ["1", "1", "1", "1"]}}, "strides": {"list": {"i": ["1", "1", "1", "1"]}}, "epsilon": {"f": 0.0}, "use_cudnn_on_gpu": {"b": true}, "padding": {"s": "U0FNRQ=="}, "data_format": {"s": "TkhXQw=="}, "explicit_paddings": {"list": {}}}}, {"name": "StatefulPartitionedCall/sequential_3/keras_layer_1/StatefulPartitionedCall/StatefulPartitionedCall/StatefulPartitionedCall/predict/MobilenetV2/expanded_conv_5/depthwise/depthwise", "op": "FusedDepthwiseConv2dNative", "input": ["StatefulPartitionedCall/sequential_3/keras_layer_1/StatefulPartitionedCall/StatefulPartitionedCall/StatefulPartitionedCall/predict/MobilenetV2/expanded_conv_5/expand/Relu6", "StatefulPartitionedCall/sequential_3/keras_layer_1/StatefulPartitionedCall/StatefulPartitionedCall/StatefulPartitionedCall/predict/MobilenetV2/expanded_conv_5/depthwise/depthwise_weights", "StatefulPartitionedCall/sequential_3/keras_layer_1/StatefulPartitionedCall/StatefulPartitionedCall/StatefulPartitionedCall/predict/MobilenetV2/expanded_conv_5/depthwise/depthwise_bn_offset"], "attr": {"fused_ops": {"list": {"s": ["Qmlhc0FkZA==", "UmVsdTY="]}}, "data_format": {"s": "TkhXQw=="}, "num_args": {"i": "1"}, "strides": {"list": {"i": ["1", "1", "1", "1"]}}, "dilations": {"list": {"i": ["1", "1", "1", "1"]}}, "padding": {"s": "U0FNRQ=="}, "T": {"type": "DT_FLOAT"}, "explicit_paddings": {"list": {}}}}, {"name": "StatefulPartitionedCall/sequential_3/keras_layer_1/StatefulPartitionedCall/StatefulPartitionedCall/StatefulPartitionedCall/predict/MobilenetV2/expanded_conv_5/project/BatchNorm/FusedBatchNormV3", "op": "_FusedConv2D", "input": ["StatefulPartitionedCall/sequential_3/keras_layer_1/StatefulPartitionedCall/StatefulPartitionedCall/StatefulPartitionedCall/predict/MobilenetV2/expanded_conv_5/depthwise/depthwise", "StatefulPartitionedCall/sequential_3/keras_layer_1/StatefulPartitionedCall/StatefulPartitionedCall/StatefulPartitionedCall/predict/MobilenetV2/expanded_conv_5/project/Conv2D_weights", "StatefulPartitionedCall/sequential_3/keras_layer_1/StatefulPartitionedCall/StatefulPartitionedCall/StatefulPartitionedCall/predict/MobilenetV2/expanded_conv_5/project/Conv2D_bn_offset"], "device": "/device:CPU:0", "attr": {"data_format": {"s": "TkhXQw=="}, "explicit_paddings": {"list": {}}, "num_args": {"i": "1"}, "dilations": {"list": {"i": ["1", "1", "1", "1"]}}, "strides": {"list": {"i": ["1", "1", "1", "1"]}}, "padding": {"s": "U0FNRQ=="}, "epsilon": {"f": 0.0}, "use_cudnn_on_gpu": {"b": true}, "T": {"type": "DT_FLOAT"}, "fused_ops": {"list": {"s": ["Qmlhc0FkZA=="]}}}}, {"name": "StatefulPartitionedCall/sequential_3/keras_layer_1/StatefulPartitionedCall/StatefulPartitionedCall/StatefulPartitionedCall/predict/MobilenetV2/expanded_conv_5/add", "op": "AddV2", "input": ["StatefulPartitionedCall/sequential_3/keras_layer_1/StatefulPartitionedCall/StatefulPartitionedCall/StatefulPartitionedCall/predict/MobilenetV2/expanded_conv_5/project/BatchNorm/FusedBatchNormV3", "StatefulPartitionedCall/sequential_3/keras_layer_1/StatefulPartitionedCall/StatefulPartitionedCall/StatefulPartitionedCall/predict/MobilenetV2/expanded_conv_4/add"], "attr": {"T": {"type": "DT_FLOAT"}}}, {"name": "StatefulPartitionedCall/sequential_3/keras_layer_1/StatefulPartitionedCall/StatefulPartitionedCall/StatefulPartitionedCall/predict/MobilenetV2/expanded_conv_6/expand/Relu6", "op": "_FusedConv2D", "input": ["StatefulPartitionedCall/sequential_3/keras_layer_1/StatefulPartitionedCall/StatefulPartitionedCall/StatefulPartitionedCall/predict/MobilenetV2/expanded_conv_5/add", "StatefulPartitionedCall/sequential_3/keras_layer_1/StatefulPartitionedCall/StatefulPartitionedCall/StatefulPartitionedCall/predict/MobilenetV2/expanded_conv_6/expand/Conv2D_weights", "StatefulPartitionedCall/sequential_3/keras_layer_1/StatefulPartitionedCall/StatefulPartitionedCall/StatefulPartitionedCall/predict/MobilenetV2/expanded_conv_6/expand/Conv2D_bn_offset"], "device": "/device:CPU:0", "attr": {"use_cudnn_on_gpu": {"b": true}, "padding": {"s": "U0FNRQ=="}, "T": {"type": "DT_FLOAT"}, "epsilon": {"f": 0.0}, "strides": {"list": {"i": ["1", "1", "1", "1"]}}, "explicit_paddings": {"list": {}}, "data_format": {"s": "TkhXQw=="}, "num_args": {"i": "1"}, "fused_ops": {"list": {"s": ["Qmlhc0FkZA==", "UmVsdTY="]}}, "dilations": {"list": {"i": ["1", "1", "1", "1"]}}}}, {"name": "StatefulPartitionedCall/sequential_3/keras_layer_1/StatefulPartitionedCall/StatefulPartitionedCall/StatefulPartitionedCall/predict/MobilenetV2/expanded_conv_6/depthwise/depthwise", "op": "FusedDepthwiseConv2dNative", "input": ["StatefulPartitionedCall/sequential_3/keras_layer_1/StatefulPartitionedCall/StatefulPartitionedCall/StatefulPartitionedCall/predict/MobilenetV2/expanded_conv_6/expand/Relu6", "StatefulPartitionedCall/sequential_3/keras_layer_1/StatefulPartitionedCall/StatefulPartitionedCall/StatefulPartitionedCall/predict/MobilenetV2/expanded_conv_6/depthwise/depthwise_weights", "StatefulPartitionedCall/sequential_3/keras_layer_1/StatefulPartitionedCall/StatefulPartitionedCall/StatefulPartitionedCall/predict/MobilenetV2/expanded_conv_6/depthwise/depthwise_bn_offset"], "attr": {"padding": {"s": "U0FNRQ=="}, "explicit_paddings": {"list": {}}, "T": {"type": "DT_FLOAT"}, "data_format": {"s": "TkhXQw=="}, "num_args": {"i": "1"}, "strides": {"list": {"i": ["1", "2", "2", "1"]}}, "fused_ops": {"list": {"s": ["Qmlhc0FkZA==", "UmVsdTY="]}}, "dilations": {"list": {"i": ["1", "1", "1", "1"]}}}}, {"name": "StatefulPartitionedCall/sequential_3/keras_layer_1/StatefulPartitionedCall/StatefulPartitionedCall/StatefulPartitionedCall/predict/MobilenetV2/expanded_conv_6/project/BatchNorm/FusedBatchNormV3", "op": "_FusedConv2D", "input": ["StatefulPartitionedCall/sequential_3/keras_layer_1/StatefulPartitionedCall/StatefulPartitionedCall/StatefulPartitionedCall/predict/MobilenetV2/expanded_conv_6/depthwise/depthwise", "StatefulPartitionedCall/sequential_3/keras_layer_1/StatefulPartitionedCall/StatefulPartitionedCall/StatefulPartitionedCall/predict/MobilenetV2/expanded_conv_6/project/Conv2D_weights", "StatefulPartitionedCall/sequential_3/keras_layer_1/StatefulPartitionedCall/StatefulPartitionedCall/StatefulPartitionedCall/predict/MobilenetV2/expanded_conv_6/project/Conv2D_bn_offset"], "device": "/device:CPU:0", "attr": {"epsilon": {"f": 0.0}, "T": {"type": "DT_FLOAT"}, "explicit_paddings": {"list": {}}, "padding": {"s": "U0FNRQ=="}, "num_args": {"i": "1"}, "data_format": {"s": "TkhXQw=="}, "fused_ops": {"list": {"s": ["Qmlhc0FkZA=="]}}, "strides": {"list": {"i": ["1", "1", "1", "1"]}}, "use_cudnn_on_gpu": {"b": true}, "dilations": {"list": {"i": ["1", "1", "1", "1"]}}}}, {"name": "StatefulPartitionedCall/sequential_3/keras_layer_1/StatefulPartitionedCall/StatefulPartitionedCall/StatefulPartitionedCall/predict/MobilenetV2/expanded_conv_7/expand/Relu6", "op": "_FusedConv2D", "input": ["StatefulPartitionedCall/sequential_3/keras_layer_1/StatefulPartitionedCall/StatefulPartitionedCall/StatefulPartitionedCall/predict/MobilenetV2/expanded_conv_6/project/BatchNorm/FusedBatchNormV3", "StatefulPartitionedCall/sequential_3/keras_layer_1/StatefulPartitionedCall/StatefulPartitionedCall/StatefulPartitionedCall/predict/MobilenetV2/expanded_conv_7/expand/Conv2D_weights", "StatefulPartitionedCall/sequential_3/keras_layer_1/StatefulPartitionedCall/StatefulPartitionedCall/StatefulPartitionedCall/predict/MobilenetV2/expanded_conv_7/expand/Conv2D_bn_offset"], "device": "/device:CPU:0", "attr": {"num_args": {"i": "1"}, "strides": {"list": {"i": ["1", "1", "1", "1"]}}, "fused_ops": {"list": {"s": ["Qmlhc0FkZA==", "UmVsdTY="]}}, "dilations": {"list": {"i": ["1", "1", "1", "1"]}}, "use_cudnn_on_gpu": {"b": true}, "epsilon": {"f": 0.0}, "explicit_paddings": {"list": {}}, "padding": {"s": "U0FNRQ=="}, "T": {"type": "DT_FLOAT"}, "data_format": {"s": "TkhXQw=="}}}, {"name": "StatefulPartitionedCall/sequential_3/keras_layer_1/StatefulPartitionedCall/StatefulPartitionedCall/StatefulPartitionedCall/predict/MobilenetV2/expanded_conv_7/depthwise/depthwise", "op": "FusedDepthwiseConv2dNative", "input": ["StatefulPartitionedCall/sequential_3/keras_layer_1/StatefulPartitionedCall/StatefulPartitionedCall/StatefulPartitionedCall/predict/MobilenetV2/expanded_conv_7/expand/Relu6", "StatefulPartitionedCall/sequential_3/keras_layer_1/StatefulPartitionedCall/StatefulPartitionedCall/StatefulPartitionedCall/predict/MobilenetV2/expanded_conv_7/depthwise/depthwise_weights", "StatefulPartitionedCall/sequential_3/keras_layer_1/StatefulPartitionedCall/StatefulPartitionedCall/StatefulPartitionedCall/predict/MobilenetV2/expanded_conv_7/depthwise/depthwise_bn_offset"], "attr": {"strides": {"list": {"i": ["1", "1", "1", "1"]}}, "fused_ops": {"list": {"s": ["Qmlhc0FkZA==", "UmVsdTY="]}}, "explicit_paddings": {"list": {}}, "data_format": {"s": "TkhXQw=="}, "num_args": {"i": "1"}, "padding": {"s": "U0FNRQ=="}, "T": {"type": "DT_FLOAT"}, "dilations": {"list": {"i": ["1", "1", "1", "1"]}}}}, {"name": "StatefulPartitionedCall/sequential_3/keras_layer_1/StatefulPartitionedCall/StatefulPartitionedCall/StatefulPartitionedCall/predict/MobilenetV2/expanded_conv_7/project/BatchNorm/FusedBatchNormV3", "op": "_FusedConv2D", "input": ["StatefulPartitionedCall/sequential_3/keras_layer_1/StatefulPartitionedCall/StatefulPartitionedCall/StatefulPartitionedCall/predict/MobilenetV2/expanded_conv_7/depthwise/depthwise", "StatefulPartitionedCall/sequential_3/keras_layer_1/StatefulPartitionedCall/StatefulPartitionedCall/StatefulPartitionedCall/predict/MobilenetV2/expanded_conv_7/project/Conv2D_weights", "StatefulPartitionedCall/sequential_3/keras_layer_1/StatefulPartitionedCall/StatefulPartitionedCall/StatefulPartitionedCall/predict/MobilenetV2/expanded_conv_7/project/Conv2D_bn_offset"], "device": "/device:CPU:0", "attr": {"use_cudnn_on_gpu": {"b": true}, "T": {"type": "DT_FLOAT"}, "padding": {"s": "U0FNRQ=="}, "epsilon": {"f": 0.0}, "fused_ops": {"list": {"s": ["Qmlhc0FkZA=="]}}, "data_format": {"s": "TkhXQw=="}, "num_args": {"i": "1"}, "explicit_paddings": {"list": {}}, "strides": {"list": {"i": ["1", "1", "1", "1"]}}, "dilations": {"list": {"i": ["1", "1", "1", "1"]}}}}, {"name": "StatefulPartitionedCall/sequential_3/keras_layer_1/StatefulPartitionedCall/StatefulPartitionedCall/StatefulPartitionedCall/predict/MobilenetV2/expanded_conv_7/add", "op": "AddV2", "input": ["StatefulPartitionedCall/sequential_3/keras_layer_1/StatefulPartitionedCall/StatefulPartitionedCall/StatefulPartitionedCall/predict/MobilenetV2/expanded_conv_7/project/BatchNorm/FusedBatchNormV3", "StatefulPartitionedCall/sequential_3/keras_layer_1/StatefulPartitionedCall/StatefulPartitionedCall/StatefulPartitionedCall/predict/MobilenetV2/expanded_conv_6/project/BatchNorm/FusedBatchNormV3"], "attr": {"T": {"type": "DT_FLOAT"}}}, {"name": "StatefulPartitionedCall/sequential_3/keras_layer_1/StatefulPartitionedCall/StatefulPartitionedCall/StatefulPartitionedCall/predict/MobilenetV2/expanded_conv_8/expand/Relu6", "op": "_FusedConv2D", "input": ["StatefulPartitionedCall/sequential_3/keras_layer_1/StatefulPartitionedCall/StatefulPartitionedCall/StatefulPartitionedCall/predict/MobilenetV2/expanded_conv_7/add", "StatefulPartitionedCall/sequential_3/keras_layer_1/StatefulPartitionedCall/StatefulPartitionedCall/StatefulPartitionedCall/predict/MobilenetV2/expanded_conv_8/expand/Conv2D_weights", "StatefulPartitionedCall/sequential_3/keras_layer_1/StatefulPartitionedCall/StatefulPartitionedCall/StatefulPartitionedCall/predict/MobilenetV2/expanded_conv_8/expand/Conv2D_bn_offset"], "device": "/device:CPU:0", "attr": {"num_args": {"i": "1"}, "T": {"type": "DT_FLOAT"}, "dilations": {"list": {"i": ["1", "1", "1", "1"]}}, "epsilon": {"f": 0.0}, "use_cudnn_on_gpu": {"b": true}, "strides": {"list": {"i": ["1", "1", "1", "1"]}}, "fused_ops": {"list": {"s": ["Qmlhc0FkZA==", "UmVsdTY="]}}, "padding": {"s": "U0FNRQ=="}, "data_format": {"s": "TkhXQw=="}, "explicit_paddings": {"list": {}}}}, {"name": "StatefulPartitionedCall/sequential_3/keras_layer_1/StatefulPartitionedCall/StatefulPartitionedCall/StatefulPartitionedCall/predict/MobilenetV2/expanded_conv_8/depthwise/depthwise", "op": "FusedDepthwiseConv2dNative", "input": ["StatefulPartitionedCall/sequential_3/keras_layer_1/StatefulPartitionedCall/StatefulPartitionedCall/StatefulPartitionedCall/predict/MobilenetV2/expanded_conv_8/expand/Relu6", "StatefulPartitionedCall/sequential_3/keras_layer_1/StatefulPartitionedCall/StatefulPartitionedCall/StatefulPartitionedCall/predict/MobilenetV2/expanded_conv_8/depthwise/depthwise_weights", "StatefulPartitionedCall/sequential_3/keras_layer_1/StatefulPartitionedCall/StatefulPartitionedCall/StatefulPartitionedCall/predict/MobilenetV2/expanded_conv_8/depthwise/depthwise_bn_offset"], "attr": {"explicit_paddings": {"list": {}}, "num_args": {"i": "1"}, "dilations": {"list": {"i": ["1", "1", "1", "1"]}}, "strides": {"list": {"i": ["1", "1", "1", "1"]}}, "padding": {"s": "U0FNRQ=="}, "T": {"type": "DT_FLOAT"}, "fused_ops": {"list": {"s": ["Qmlhc0FkZA==", "UmVsdTY="]}}, "data_format": {"s": "TkhXQw=="}}}, {"name": "StatefulPartitionedCall/sequential_3/keras_layer_1/StatefulPartitionedCall/StatefulPartitionedCall/StatefulPartitionedCall/predict/MobilenetV2/expanded_conv_8/project/BatchNorm/FusedBatchNormV3", "op": "_FusedConv2D", "input": ["StatefulPartitionedCall/sequential_3/keras_layer_1/StatefulPartitionedCall/StatefulPartitionedCall/StatefulPartitionedCall/predict/MobilenetV2/expanded_conv_8/depthwise/depthwise", "StatefulPartitionedCall/sequential_3/keras_layer_1/StatefulPartitionedCall/StatefulPartitionedCall/StatefulPartitionedCall/predict/MobilenetV2/expanded_conv_8/project/Conv2D_weights", "StatefulPartitionedCall/sequential_3/keras_layer_1/StatefulPartitionedCall/StatefulPartitionedCall/StatefulPartitionedCall/predict/MobilenetV2/expanded_conv_8/project/Conv2D_bn_offset"], "device": "/device:CPU:0", "attr": {"explicit_paddings": {"list": {}}, "num_args": {"i": "1"}, "data_format": {"s": "TkhXQw=="}, "strides": {"list": {"i": ["1", "1", "1", "1"]}}, "use_cudnn_on_gpu": {"b": true}, "dilations": {"list": {"i": ["1", "1", "1", "1"]}}, "T": {"type": "DT_FLOAT"}, "padding": {"s": "U0FNRQ=="}, "epsilon": {"f": 0.0}, "fused_ops": {"list": {"s": ["Qmlhc0FkZA=="]}}}}, {"name": "StatefulPartitionedCall/sequential_3/keras_layer_1/StatefulPartitionedCall/StatefulPartitionedCall/StatefulPartitionedCall/predict/MobilenetV2/expanded_conv_8/add", "op": "AddV2", "input": ["StatefulPartitionedCall/sequential_3/keras_layer_1/StatefulPartitionedCall/StatefulPartitionedCall/StatefulPartitionedCall/predict/MobilenetV2/expanded_conv_8/project/BatchNorm/FusedBatchNormV3", "StatefulPartitionedCall/sequential_3/keras_layer_1/StatefulPartitionedCall/StatefulPartitionedCall/StatefulPartitionedCall/predict/MobilenetV2/expanded_conv_7/add"], "attr": {"T": {"type": "DT_FLOAT"}}}, {"name": "StatefulPartitionedCall/sequential_3/keras_layer_1/StatefulPartitionedCall/StatefulPartitionedCall/StatefulPartitionedCall/predict/MobilenetV2/expanded_conv_9/expand/Relu6", "op": "_FusedConv2D", "input": ["StatefulPartitionedCall/sequential_3/keras_layer_1/StatefulPartitionedCall/StatefulPartitionedCall/StatefulPartitionedCall/predict/MobilenetV2/expanded_conv_8/add", "StatefulPartitionedCall/sequential_3/keras_layer_1/StatefulPartitionedCall/StatefulPartitionedCall/StatefulPartitionedCall/predict/MobilenetV2/expanded_conv_9/expand/Conv2D_weights", "StatefulPartitionedCall/sequential_3/keras_layer_1/StatefulPartitionedCall/StatefulPartitionedCall/StatefulPartitionedCall/predict/MobilenetV2/expanded_conv_9/expand/Conv2D_bn_offset"], "device": "/device:CPU:0", "attr": {"use_cudnn_on_gpu": {"b": true}, "padding": {"s": "U0FNRQ=="}, "epsilon": {"f": 0.0}, "T": {"type": "DT_FLOAT"}, "explicit_paddings": {"list": {}}, "fused_ops": {"list": {"s": ["Qmlhc0FkZA==", "UmVsdTY="]}}, "num_args": {"i": "1"}, "data_format": {"s": "TkhXQw=="}, "strides": {"list": {"i": ["1", "1", "1", "1"]}}, "dilations": {"list": {"i": ["1", "1", "1", "1"]}}}}, {"name": "StatefulPartitionedCall/sequential_3/keras_layer_1/StatefulPartitionedCall/StatefulPartitionedCall/StatefulPartitionedCall/predict/MobilenetV2/expanded_conv_9/depthwise/depthwise", "op": "FusedDepthwiseConv2dNative", "input": ["StatefulPartitionedCall/sequential_3/keras_layer_1/StatefulPartitionedCall/StatefulPartitionedCall/StatefulPartitionedCall/predict/MobilenetV2/expanded_conv_9/expand/Relu6", "StatefulPartitionedCall/sequential_3/keras_layer_1/StatefulPartitionedCall/StatefulPartitionedCall/StatefulPartitionedCall/predict/MobilenetV2/expanded_conv_9/depthwise/depthwise_weights", "StatefulPartitionedCall/sequential_3/keras_layer_1/StatefulPartitionedCall/StatefulPartitionedCall/StatefulPartitionedCall/predict/MobilenetV2/expanded_conv_9/depthwise/depthwise_bn_offset"], "attr": {"strides": {"list": {"i": ["1", "1", "1", "1"]}}, "data_format": {"s": "TkhXQw=="}, "explicit_paddings": {"list": {}}, "num_args": {"i": "1"}, "fused_ops": {"list": {"s": ["Qmlhc0FkZA==", "UmVsdTY="]}}, "padding": {"s": "U0FNRQ=="}, "T": {"type": "DT_FLOAT"}, "dilations": {"list": {"i": ["1", "1", "1", "1"]}}}}, {"name": "StatefulPartitionedCall/sequential_3/keras_layer_1/StatefulPartitionedCall/StatefulPartitionedCall/StatefulPartitionedCall/predict/MobilenetV2/expanded_conv_9/project/BatchNorm/FusedBatchNormV3", "op": "_FusedConv2D", "input": ["StatefulPartitionedCall/sequential_3/keras_layer_1/StatefulPartitionedCall/StatefulPartitionedCall/StatefulPartitionedCall/predict/MobilenetV2/expanded_conv_9/depthwise/depthwise", "StatefulPartitionedCall/sequential_3/keras_layer_1/StatefulPartitionedCall/StatefulPartitionedCall/StatefulPartitionedCall/predict/MobilenetV2/expanded_conv_9/project/Conv2D_weights", "StatefulPartitionedCall/sequential_3/keras_layer_1/StatefulPartitionedCall/StatefulPartitionedCall/StatefulPartitionedCall/predict/MobilenetV2/expanded_conv_9/project/Conv2D_bn_offset"], "device": "/device:CPU:0", "attr": {"explicit_paddings": {"list": {}}, "num_args": {"i": "1"}, "data_format": {"s": "TkhXQw=="}, "fused_ops": {"list": {"s": ["Qmlhc0FkZA=="]}}, "use_cudnn_on_gpu": {"b": true}, "dilations": {"list": {"i": ["1", "1", "1", "1"]}}, "padding": {"s": "U0FNRQ=="}, "T": {"type": "DT_FLOAT"}, "epsilon": {"f": 0.0}, "strides": {"list": {"i": ["1", "1", "1", "1"]}}}}, {"name": "StatefulPartitionedCall/sequential_3/keras_layer_1/StatefulPartitionedCall/StatefulPartitionedCall/StatefulPartitionedCall/predict/MobilenetV2/expanded_conv_9/add", "op": "AddV2", "input": ["StatefulPartitionedCall/sequential_3/keras_layer_1/StatefulPartitionedCall/StatefulPartitionedCall/StatefulPartitionedCall/predict/MobilenetV2/expanded_conv_9/project/BatchNorm/FusedBatchNormV3", "StatefulPartitionedCall/sequential_3/keras_layer_1/StatefulPartitionedCall/StatefulPartitionedCall/StatefulPartitionedCall/predict/MobilenetV2/expanded_conv_8/add"], "attr": {"T": {"type": "DT_FLOAT"}}}, {"name": "StatefulPartitionedCall/sequential_3/keras_layer_1/StatefulPartitionedCall/StatefulPartitionedCall/StatefulPartitionedCall/predict/MobilenetV2/expanded_conv_10/expand/Relu6", "op": "_FusedConv2D", "input": ["StatefulPartitionedCall/sequential_3/keras_layer_1/StatefulPartitionedCall/StatefulPartitionedCall/StatefulPartitionedCall/predict/MobilenetV2/expanded_conv_9/add", "StatefulPartitionedCall/sequential_3/keras_layer_1/StatefulPartitionedCall/StatefulPartitionedCall/StatefulPartitionedCall/predict/MobilenetV2/expanded_conv_10/expand/Conv2D_weights", "StatefulPartitionedCall/sequential_3/keras_layer_1/StatefulPartitionedCall/StatefulPartitionedCall/StatefulPartitionedCall/predict/MobilenetV2/expanded_conv_10/expand/Conv2D_bn_offset"], "device": "/device:CPU:0", "attr": {"T": {"type": "DT_FLOAT"}, "fused_ops": {"list": {"s": ["Qmlhc0FkZA==", "UmVsdTY="]}}, "num_args": {"i": "1"}, "strides": {"list": {"i": ["1", "1", "1", "1"]}}, "dilations": {"list": {"i": ["1", "1", "1", "1"]}}, "epsilon": {"f": 0.0}, "use_cudnn_on_gpu": {"b": true}, "padding": {"s": "U0FNRQ=="}, "explicit_paddings": {"list": {}}, "data_format": {"s": "TkhXQw=="}}}, {"name": "StatefulPartitionedCall/sequential_3/keras_layer_1/StatefulPartitionedCall/StatefulPartitionedCall/StatefulPartitionedCall/predict/MobilenetV2/expanded_conv_10/depthwise/depthwise", "op": "FusedDepthwiseConv2dNative", "input": ["StatefulPartitionedCall/sequential_3/keras_layer_1/StatefulPartitionedCall/StatefulPartitionedCall/StatefulPartitionedCall/predict/MobilenetV2/expanded_conv_10/expand/Relu6", "StatefulPartitionedCall/sequential_3/keras_layer_1/StatefulPartitionedCall/StatefulPartitionedCall/StatefulPartitionedCall/predict/MobilenetV2/expanded_conv_10/depthwise/depthwise_weights", "StatefulPartitionedCall/sequential_3/keras_layer_1/StatefulPartitionedCall/StatefulPartitionedCall/StatefulPartitionedCall/predict/MobilenetV2/expanded_conv_10/depthwise/depthwise_bn_offset"], "attr": {"data_format": {"s": "TkhXQw=="}, "explicit_paddings": {"list": {}}, "num_args": {"i": "1"}, "dilations": {"list": {"i": ["1", "1", "1", "1"]}}, "strides": {"list": {"i": ["1", "1", "1", "1"]}}, "padding": {"s": "U0FNRQ=="}, "fused_ops": {"list": {"s": ["Qmlhc0FkZA==", "UmVsdTY="]}}, "T": {"type": "DT_FLOAT"}}}, {"name": "StatefulPartitionedCall/sequential_3/keras_layer_1/StatefulPartitionedCall/StatefulPartitionedCall/StatefulPartitionedCall/predict/MobilenetV2/expanded_conv_10/project/BatchNorm/FusedBatchNormV3", "op": "_FusedConv2D", "input": ["StatefulPartitionedCall/sequential_3/keras_layer_1/StatefulPartitionedCall/StatefulPartitionedCall/StatefulPartitionedCall/predict/MobilenetV2/expanded_conv_10/depthwise/depthwise", "StatefulPartitionedCall/sequential_3/keras_layer_1/StatefulPartitionedCall/StatefulPartitionedCall/StatefulPartitionedCall/predict/MobilenetV2/expanded_conv_10/project/Conv2D_weights", "StatefulPartitionedCall/sequential_3/keras_layer_1/StatefulPartitionedCall/StatefulPartitionedCall/StatefulPartitionedCall/predict/MobilenetV2/expanded_conv_10/project/Conv2D_bn_offset"], "device": "/device:CPU:0", "attr": {"data_format": {"s": "TkhXQw=="}, "strides": {"list": {"i": ["1", "1", "1", "1"]}}, "explicit_paddings": {"list": {}}, "fused_ops": {"list": {"s": ["Qmlhc0FkZA=="]}}, "num_args": {"i": "1"}, "dilations": {"list": {"i": ["1", "1", "1", "1"]}}, "padding": {"s": "U0FNRQ=="}, "use_cudnn_on_gpu": {"b": true}, "epsilon": {"f": 0.0}, "T": {"type": "DT_FLOAT"}}}, {"name": "StatefulPartitionedCall/sequential_3/keras_layer_1/StatefulPartitionedCall/StatefulPartitionedCall/StatefulPartitionedCall/predict/MobilenetV2/expanded_conv_11/expand/Relu6", "op": "_FusedConv2D", "input": ["StatefulPartitionedCall/sequential_3/keras_layer_1/StatefulPartitionedCall/StatefulPartitionedCall/StatefulPartitionedCall/predict/MobilenetV2/expanded_conv_10/project/BatchNorm/FusedBatchNormV3", "StatefulPartitionedCall/sequential_3/keras_layer_1/StatefulPartitionedCall/StatefulPartitionedCall/StatefulPartitionedCall/predict/MobilenetV2/expanded_conv_11/expand/Conv2D_weights", "StatefulPartitionedCall/sequential_3/keras_layer_1/StatefulPartitionedCall/StatefulPartitionedCall/StatefulPartitionedCall/predict/MobilenetV2/expanded_conv_11/expand/Conv2D_bn_offset"], "device": "/device:CPU:0", "attr": {"epsilon": {"f": 0.0}, "fused_ops": {"list": {"s": ["Qmlhc0FkZA==", "UmVsdTY="]}}, "padding": {"s": "U0FNRQ=="}, "dilations": {"list": {"i": ["1", "1", "1", "1"]}}, "use_cudnn_on_gpu": {"b": true}, "strides": {"list": {"i": ["1", "1", "1", "1"]}}, "explicit_paddings": {"list": {}}, "num_args": {"i": "1"}, "data_format": {"s": "TkhXQw=="}, "T": {"type": "DT_FLOAT"}}}, {"name": "StatefulPartitionedCall/sequential_3/keras_layer_1/StatefulPartitionedCall/StatefulPartitionedCall/StatefulPartitionedCall/predict/MobilenetV2/expanded_conv_11/depthwise/depthwise", "op": "FusedDepthwiseConv2dNative", "input": ["StatefulPartitionedCall/sequential_3/keras_layer_1/StatefulPartitionedCall/StatefulPartitionedCall/StatefulPartitionedCall/predict/MobilenetV2/expanded_conv_11/expand/Relu6", "StatefulPartitionedCall/sequential_3/keras_layer_1/StatefulPartitionedCall/StatefulPartitionedCall/StatefulPartitionedCall/predict/MobilenetV2/expanded_conv_11/depthwise/depthwise_weights", "StatefulPartitionedCall/sequential_3/keras_layer_1/StatefulPartitionedCall/StatefulPartitionedCall/StatefulPartitionedCall/predict/MobilenetV2/expanded_conv_11/depthwise/depthwise_bn_offset"], "attr": {"explicit_paddings": {"list": {}}, "num_args": {"i": "1"}, "dilations": {"list": {"i": ["1", "1", "1", "1"]}}, "strides": {"list": {"i": ["1", "1", "1", "1"]}}, "padding": {"s": "U0FNRQ=="}, "T": {"type": "DT_FLOAT"}, "fused_ops": {"list": {"s": ["Qmlhc0FkZA==", "UmVsdTY="]}}, "data_format": {"s": "TkhXQw=="}}}, {"name": "StatefulPartitionedCall/sequential_3/keras_layer_1/StatefulPartitionedCall/StatefulPartitionedCall/StatefulPartitionedCall/predict/MobilenetV2/expanded_conv_11/project/BatchNorm/FusedBatchNormV3", "op": "_FusedConv2D", "input": ["StatefulPartitionedCall/sequential_3/keras_layer_1/StatefulPartitionedCall/StatefulPartitionedCall/StatefulPartitionedCall/predict/MobilenetV2/expanded_conv_11/depthwise/depthwise", "StatefulPartitionedCall/sequential_3/keras_layer_1/StatefulPartitionedCall/StatefulPartitionedCall/StatefulPartitionedCall/predict/MobilenetV2/expanded_conv_11/project/Conv2D_weights", "StatefulPartitionedCall/sequential_3/keras_layer_1/StatefulPartitionedCall/StatefulPartitionedCall/StatefulPartitionedCall/predict/MobilenetV2/expanded_conv_11/project/Conv2D_bn_offset"], "device": "/device:CPU:0", "attr": {"fused_ops": {"list": {"s": ["Qmlhc0FkZA=="]}}, "data_format": {"s": "TkhXQw=="}, "strides": {"list": {"i": ["1", "1", "1", "1"]}}, "padding": {"s": "U0FNRQ=="}, "explicit_paddings": {"list": {}}, "num_args": {"i": "1"}, "T": {"type": "DT_FLOAT"}, "dilations": {"list": {"i": ["1", "1", "1", "1"]}}, "epsilon": {"f": 0.0}, "use_cudnn_on_gpu": {"b": true}}}, {"name": "StatefulPartitionedCall/sequential_3/keras_layer_1/StatefulPartitionedCall/StatefulPartitionedCall/StatefulPartitionedCall/predict/MobilenetV2/expanded_conv_11/add", "op": "AddV2", "input": ["StatefulPartitionedCall/sequential_3/keras_layer_1/StatefulPartitionedCall/StatefulPartitionedCall/StatefulPartitionedCall/predict/MobilenetV2/expanded_conv_11/project/BatchNorm/FusedBatchNormV3", "StatefulPartitionedCall/sequential_3/keras_layer_1/StatefulPartitionedCall/StatefulPartitionedCall/StatefulPartitionedCall/predict/MobilenetV2/expanded_conv_10/project/BatchNorm/FusedBatchNormV3"], "attr": {"T": {"type": "DT_FLOAT"}}}, {"name": "StatefulPartitionedCall/sequential_3/keras_layer_1/StatefulPartitionedCall/StatefulPartitionedCall/StatefulPartitionedCall/predict/MobilenetV2/expanded_conv_12/expand/Relu6", "op": "_FusedConv2D", "input": ["StatefulPartitionedCall/sequential_3/keras_layer_1/StatefulPartitionedCall/StatefulPartitionedCall/StatefulPartitionedCall/predict/MobilenetV2/expanded_conv_11/add", "StatefulPartitionedCall/sequential_3/keras_layer_1/StatefulPartitionedCall/StatefulPartitionedCall/StatefulPartitionedCall/predict/MobilenetV2/expanded_conv_12/expand/Conv2D_weights", "StatefulPartitionedCall/sequential_3/keras_layer_1/StatefulPartitionedCall/StatefulPartitionedCall/StatefulPartitionedCall/predict/MobilenetV2/expanded_conv_12/expand/Conv2D_bn_offset"], "device": "/device:CPU:0", "attr": {"explicit_paddings": {"list": {}}, "num_args": {"i": "1"}, "data_format": {"s": "TkhXQw=="}, "fused_ops": {"list": {"s": ["Qmlhc0FkZA==", "UmVsdTY="]}}, "use_cudnn_on_gpu": {"b": true}, "dilations": {"list": {"i": ["1", "1", "1", "1"]}}, "T": {"type": "DT_FLOAT"}, "padding": {"s": "U0FNRQ=="}, "epsilon": {"f": 0.0}, "strides": {"list": {"i": ["1", "1", "1", "1"]}}}}, {"name": "StatefulPartitionedCall/sequential_3/keras_layer_1/StatefulPartitionedCall/StatefulPartitionedCall/StatefulPartitionedCall/predict/MobilenetV2/expanded_conv_12/depthwise/depthwise", "op": "FusedDepthwiseConv2dNative", "input": ["StatefulPartitionedCall/sequential_3/keras_layer_1/StatefulPartitionedCall/StatefulPartitionedCall/StatefulPartitionedCall/predict/MobilenetV2/expanded_conv_12/expand/Relu6", "StatefulPartitionedCall/sequential_3/keras_layer_1/StatefulPartitionedCall/StatefulPartitionedCall/StatefulPartitionedCall/predict/MobilenetV2/expanded_conv_12/depthwise/depthwise_weights", "StatefulPartitionedCall/sequential_3/keras_layer_1/StatefulPartitionedCall/StatefulPartitionedCall/StatefulPartitionedCall/predict/MobilenetV2/expanded_conv_12/depthwise/depthwise_bn_offset"], "attr": {"num_args": {"i": "1"}, "fused_ops": {"list": {"s": ["Qmlhc0FkZA==", "UmVsdTY="]}}, "dilations": {"list": {"i": ["1", "1", "1", "1"]}}, "strides": {"list": {"i": ["1", "1", "1", "1"]}}, "padding": {"s": "U0FNRQ=="}, "data_format": {"s": "TkhXQw=="}, "T": {"type": "DT_FLOAT"}, "explicit_paddings": {"list": {}}}}, {"name": "StatefulPartitionedCall/sequential_3/keras_layer_1/StatefulPartitionedCall/StatefulPartitionedCall/StatefulPartitionedCall/predict/MobilenetV2/expanded_conv_12/project/BatchNorm/FusedBatchNormV3", "op": "_FusedConv2D", "input": ["StatefulPartitionedCall/sequential_3/keras_layer_1/StatefulPartitionedCall/StatefulPartitionedCall/StatefulPartitionedCall/predict/MobilenetV2/expanded_conv_12/depthwise/depthwise", "StatefulPartitionedCall/sequential_3/keras_layer_1/StatefulPartitionedCall/StatefulPartitionedCall/StatefulPartitionedCall/predict/MobilenetV2/expanded_conv_12/project/Conv2D_weights", "StatefulPartitionedCall/sequential_3/keras_layer_1/StatefulPartitionedCall/StatefulPartitionedCall/StatefulPartitionedCall/predict/MobilenetV2/expanded_conv_12/project/Conv2D_bn_offset"], "device": "/device:CPU:0", "attr": {"strides": {"list": {"i": ["1", "1", "1", "1"]}}, "fused_ops": {"list": {"s": ["Qmlhc0FkZA=="]}}, "padding": {"s": "U0FNRQ=="}, "data_format": {"s": "TkhXQw=="}, "explicit_paddings": {"list": {}}, "num_args": {"i": "1"}, "dilations": {"list": {"i": ["1", "1", "1", "1"]}}, "T": {"type": "DT_FLOAT"}, "epsilon": {"f": 0.0}, "use_cudnn_on_gpu": {"b": true}}}, {"name": "StatefulPartitionedCall/sequential_3/keras_layer_1/StatefulPartitionedCall/StatefulPartitionedCall/StatefulPartitionedCall/predict/MobilenetV2/expanded_conv_12/add", "op": "AddV2", "input": ["StatefulPartitionedCall/sequential_3/keras_layer_1/StatefulPartitionedCall/StatefulPartitionedCall/StatefulPartitionedCall/predict/MobilenetV2/expanded_conv_12/project/BatchNorm/FusedBatchNormV3", "StatefulPartitionedCall/sequential_3/keras_layer_1/StatefulPartitionedCall/StatefulPartitionedCall/StatefulPartitionedCall/predict/MobilenetV2/expanded_conv_11/add"], "attr": {"T": {"type": "DT_FLOAT"}}}, {"name": "StatefulPartitionedCall/sequential_3/keras_layer_1/StatefulPartitionedCall/StatefulPartitionedCall/StatefulPartitionedCall/predict/MobilenetV2/expanded_conv_13/expand/Relu6", "op": "_FusedConv2D", "input": ["StatefulPartitionedCall/sequential_3/keras_layer_1/StatefulPartitionedCall/StatefulPartitionedCall/StatefulPartitionedCall/predict/MobilenetV2/expanded_conv_12/add", "StatefulPartitionedCall/sequential_3/keras_layer_1/StatefulPartitionedCall/StatefulPartitionedCall/StatefulPartitionedCall/predict/MobilenetV2/expanded_conv_13/expand/Conv2D_weights", "StatefulPartitionedCall/sequential_3/keras_layer_1/StatefulPartitionedCall/StatefulPartitionedCall/StatefulPartitionedCall/predict/MobilenetV2/expanded_conv_13/expand/Conv2D_bn_offset"], "device": "/device:CPU:0", "attr": {"use_cudnn_on_gpu": {"b": true}, "strides": {"list": {"i": ["1", "1", "1", "1"]}}, "T": {"type": "DT_FLOAT"}, "explicit_paddings": {"list": {}}, "fused_ops": {"list": {"s": ["Qmlhc0FkZA==", "UmVsdTY="]}}, "padding": {"s": "U0FNRQ=="}, "num_args": {"i": "1"}, "data_format": {"s": "TkhXQw=="}, "epsilon": {"f": 0.0}, "dilations": {"list": {"i": ["1", "1", "1", "1"]}}}}, {"name": "StatefulPartitionedCall/sequential_3/keras_layer_1/StatefulPartitionedCall/StatefulPartitionedCall/StatefulPartitionedCall/predict/MobilenetV2/expanded_conv_13/depthwise/depthwise", "op": "FusedDepthwiseConv2dNative", "input": ["StatefulPartitionedCall/sequential_3/keras_layer_1/StatefulPartitionedCall/StatefulPartitionedCall/StatefulPartitionedCall/predict/MobilenetV2/expanded_conv_13/expand/Relu6", "StatefulPartitionedCall/sequential_3/keras_layer_1/StatefulPartitionedCall/StatefulPartitionedCall/StatefulPartitionedCall/predict/MobilenetV2/expanded_conv_13/depthwise/depthwise_weights", "StatefulPartitionedCall/sequential_3/keras_layer_1/StatefulPartitionedCall/StatefulPartitionedCall/StatefulPartitionedCall/predict/MobilenetV2/expanded_conv_13/depthwise/depthwise_bn_offset"], "attr": {"T": {"type": "DT_FLOAT"}, "dilations": {"list": {"i": ["1", "1", "1", "1"]}}, "data_format": {"s": "TkhXQw=="}, "fused_ops": {"list": {"s": ["Qmlhc0FkZA==", "UmVsdTY="]}}, "strides": {"list": {"i": ["1", "2", "2", "1"]}}, "padding": {"s": "U0FNRQ=="}, "num_args": {"i": "1"}, "explicit_paddings": {"list": {}}}}, {"name": "StatefulPartitionedCall/sequential_3/keras_layer_1/StatefulPartitionedCall/StatefulPartitionedCall/StatefulPartitionedCall/predict/MobilenetV2/expanded_conv_13/project/BatchNorm/FusedBatchNormV3", "op": "_FusedConv2D", "input": ["StatefulPartitionedCall/sequential_3/keras_layer_1/StatefulPartitionedCall/StatefulPartitionedCall/StatefulPartitionedCall/predict/MobilenetV2/expanded_conv_13/depthwise/depthwise", "StatefulPartitionedCall/sequential_3/keras_layer_1/StatefulPartitionedCall/StatefulPartitionedCall/StatefulPartitionedCall/predict/MobilenetV2/expanded_conv_13/project/Conv2D_weights", "StatefulPartitionedCall/sequential_3/keras_layer_1/StatefulPartitionedCall/StatefulPartitionedCall/StatefulPartitionedCall/predict/MobilenetV2/expanded_conv_13/project/Conv2D_bn_offset"], "device": "/device:CPU:0", "attr": {"use_cudnn_on_gpu": {"b": true}, "dilations": {"list": {"i": ["1", "1", "1", "1"]}}, "epsilon": {"f": 0.0}, "strides": {"list": {"i": ["1", "1", "1", "1"]}}, "explicit_paddings": {"list": {}}, "fused_ops": {"list": {"s": ["Qmlhc0FkZA=="]}}, "padding": {"s": "U0FNRQ=="}, "num_args": {"i": "1"}, "T": {"type": "DT_FLOAT"}, "data_format": {"s": "TkhXQw=="}}}, {"name": "StatefulPartitionedCall/sequential_3/keras_layer_1/StatefulPartitionedCall/StatefulPartitionedCall/StatefulPartitionedCall/predict/MobilenetV2/expanded_conv_14/expand/Relu6", "op": "_FusedConv2D", "input": ["StatefulPartitionedCall/sequential_3/keras_layer_1/StatefulPartitionedCall/StatefulPartitionedCall/StatefulPartitionedCall/predict/MobilenetV2/expanded_conv_13/project/BatchNorm/FusedBatchNormV3", "StatefulPartitionedCall/sequential_3/keras_layer_1/StatefulPartitionedCall/StatefulPartitionedCall/StatefulPartitionedCall/predict/MobilenetV2/expanded_conv_14/expand/Conv2D_weights", "StatefulPartitionedCall/sequential_3/keras_layer_1/StatefulPartitionedCall/StatefulPartitionedCall/StatefulPartitionedCall/predict/MobilenetV2/expanded_conv_14/expand/Conv2D_bn_offset"], "device": "/device:CPU:0", "attr": {"num_args": {"i": "1"}, "data_format": {"s": "TkhXQw=="}, "fused_ops": {"list": {"s": ["Qmlhc0FkZA==", "UmVsdTY="]}}, "padding": {"s": "U0FNRQ=="}, "use_cudnn_on_gpu": {"b": true}, "dilations": {"list": {"i": ["1", "1", "1", "1"]}}, "T": {"type": "DT_FLOAT"}, "epsilon": {"f": 0.0}, "strides": {"list": {"i": ["1", "1", "1", "1"]}}, "explicit_paddings": {"list": {}}}}, {"name": "StatefulPartitionedCall/sequential_3/keras_layer_1/StatefulPartitionedCall/StatefulPartitionedCall/StatefulPartitionedCall/predict/MobilenetV2/expanded_conv_14/depthwise/depthwise", "op": "FusedDepthwiseConv2dNative", "input": ["StatefulPartitionedCall/sequential_3/keras_layer_1/StatefulPartitionedCall/StatefulPartitionedCall/StatefulPartitionedCall/predict/MobilenetV2/expanded_conv_14/expand/Relu6", "StatefulPartitionedCall/sequential_3/keras_layer_1/StatefulPartitionedCall/StatefulPartitionedCall/StatefulPartitionedCall/predict/MobilenetV2/expanded_conv_14/depthwise/depthwise_weights", "StatefulPartitionedCall/sequential_3/keras_layer_1/StatefulPartitionedCall/StatefulPartitionedCall/StatefulPartitionedCall/predict/MobilenetV2/expanded_conv_14/depthwise/depthwise_bn_offset"], "attr": {"T": {"type": "DT_FLOAT"}, "fused_ops": {"list": {"s": ["Qmlhc0FkZA==", "UmVsdTY="]}}, "explicit_paddings": {"list": {}}, "data_format": {"s": "TkhXQw=="}, "num_args": {"i": "1"}, "strides": {"list": {"i": ["1", "1", "1", "1"]}}, "padding": {"s": "U0FNRQ=="}, "dilations": {"list": {"i": ["1", "1", "1", "1"]}}}}, {"name": "StatefulPartitionedCall/sequential_3/keras_layer_1/StatefulPartitionedCall/StatefulPartitionedCall/StatefulPartitionedCall/predict/MobilenetV2/expanded_conv_14/project/BatchNorm/FusedBatchNormV3", "op": "_FusedConv2D", "input": ["StatefulPartitionedCall/sequential_3/keras_layer_1/StatefulPartitionedCall/StatefulPartitionedCall/StatefulPartitionedCall/predict/MobilenetV2/expanded_conv_14/depthwise/depthwise", "StatefulPartitionedCall/sequential_3/keras_layer_1/StatefulPartitionedCall/StatefulPartitionedCall/StatefulPartitionedCall/predict/MobilenetV2/expanded_conv_14/project/Conv2D_weights", "StatefulPartitionedCall/sequential_3/keras_layer_1/StatefulPartitionedCall/StatefulPartitionedCall/StatefulPartitionedCall/predict/MobilenetV2/expanded_conv_14/project/Conv2D_bn_offset"], "device": "/device:CPU:0", "attr": {"explicit_paddings": {"list": {}}, "data_format": {"s": "TkhXQw=="}, "fused_ops": {"list": {"s": ["Qmlhc0FkZA=="]}}, "padding": {"s": "U0FNRQ=="}, "num_args": {"i": "1"}, "dilations": {"list": {"i": ["1", "1", "1", "1"]}}, "epsilon": {"f": 0.0}, "use_cudnn_on_gpu": {"b": true}, "T": {"type": "DT_FLOAT"}, "strides": {"list": {"i": ["1", "1", "1", "1"]}}}}, {"name": "StatefulPartitionedCall/sequential_3/keras_layer_1/StatefulPartitionedCall/StatefulPartitionedCall/StatefulPartitionedCall/predict/MobilenetV2/expanded_conv_14/add", "op": "AddV2", "input": ["StatefulPartitionedCall/sequential_3/keras_layer_1/StatefulPartitionedCall/StatefulPartitionedCall/StatefulPartitionedCall/predict/MobilenetV2/expanded_conv_14/project/BatchNorm/FusedBatchNormV3", "StatefulPartitionedCall/sequential_3/keras_layer_1/StatefulPartitionedCall/StatefulPartitionedCall/StatefulPartitionedCall/predict/MobilenetV2/expanded_conv_13/project/BatchNorm/FusedBatchNormV3"], "attr": {"T": {"type": "DT_FLOAT"}}}, {"name": "StatefulPartitionedCall/sequential_3/keras_layer_1/StatefulPartitionedCall/StatefulPartitionedCall/StatefulPartitionedCall/predict/MobilenetV2/expanded_conv_15/expand/Relu6", "op": "_FusedConv2D", "input": ["StatefulPartitionedCall/sequential_3/keras_layer_1/StatefulPartitionedCall/StatefulPartitionedCall/StatefulPartitionedCall/predict/MobilenetV2/expanded_conv_14/add", "StatefulPartitionedCall/sequential_3/keras_layer_1/StatefulPartitionedCall/StatefulPartitionedCall/StatefulPartitionedCall/predict/MobilenetV2/expanded_conv_15/expand/Conv2D_weights", "StatefulPartitionedCall/sequential_3/keras_layer_1/StatefulPartitionedCall/StatefulPartitionedCall/StatefulPartitionedCall/predict/MobilenetV2/expanded_conv_15/expand/Conv2D_bn_offset"], "device": "/device:CPU:0", "attr": {"use_cudnn_on_gpu": {"b": true}, "dilations": {"list": {"i": ["1", "1", "1", "1"]}}, "T": {"type": "DT_FLOAT"}, "padding": {"s": "U0FNRQ=="}, "epsilon": {"f": 0.0}, "strides": {"list": {"i": ["1", "1", "1", "1"]}}, "data_format": {"s": "TkhXQw=="}, "num_args": {"i": "1"}, "explicit_paddings": {"list": {}}, "fused_ops": {"list": {"s": ["Qmlhc0FkZA==", "UmVsdTY="]}}}}, {"name": "StatefulPartitionedCall/sequential_3/keras_layer_1/StatefulPartitionedCall/StatefulPartitionedCall/StatefulPartitionedCall/predict/MobilenetV2/expanded_conv_15/depthwise/depthwise", "op": "FusedDepthwiseConv2dNative", "input": ["StatefulPartitionedCall/sequential_3/keras_layer_1/StatefulPartitionedCall/StatefulPartitionedCall/StatefulPartitionedCall/predict/MobilenetV2/expanded_conv_15/expand/Relu6", "StatefulPartitionedCall/sequential_3/keras_layer_1/StatefulPartitionedCall/StatefulPartitionedCall/StatefulPartitionedCall/predict/MobilenetV2/expanded_conv_15/depthwise/depthwise_weights", "StatefulPartitionedCall/sequential_3/keras_layer_1/StatefulPartitionedCall/StatefulPartitionedCall/StatefulPartitionedCall/predict/MobilenetV2/expanded_conv_15/depthwise/depthwise_bn_offset"], "attr": {"explicit_paddings": {"list": {}}, "num_args": {"i": "1"}, "dilations": {"list": {"i": ["1", "1", "1", "1"]}}, "strides": {"list": {"i": ["1", "1", "1", "1"]}}, "padding": {"s": "U0FNRQ=="}, "T": {"type": "DT_FLOAT"}, "fused_ops": {"list": {"s": ["Qmlhc0FkZA==", "UmVsdTY="]}}, "data_format": {"s": "TkhXQw=="}}}, {"name": "StatefulPartitionedCall/sequential_3/keras_layer_1/StatefulPartitionedCall/StatefulPartitionedCall/StatefulPartitionedCall/predict/MobilenetV2/expanded_conv_15/project/BatchNorm/FusedBatchNormV3", "op": "_FusedConv2D", "input": ["StatefulPartitionedCall/sequential_3/keras_layer_1/StatefulPartitionedCall/StatefulPartitionedCall/StatefulPartitionedCall/predict/MobilenetV2/expanded_conv_15/depthwise/depthwise", "StatefulPartitionedCall/sequential_3/keras_layer_1/StatefulPartitionedCall/StatefulPartitionedCall/StatefulPartitionedCall/predict/MobilenetV2/expanded_conv_15/project/Conv2D_weights", "StatefulPartitionedCall/sequential_3/keras_layer_1/StatefulPartitionedCall/StatefulPartitionedCall/StatefulPartitionedCall/predict/MobilenetV2/expanded_conv_15/project/Conv2D_bn_offset"], "device": "/device:CPU:0", "attr": {"data_format": {"s": "TkhXQw=="}, "padding": {"s": "U0FNRQ=="}, "T": {"type": "DT_FLOAT"}, "num_args": {"i": "1"}, "explicit_paddings": {"list": {}}, "fused_ops": {"list": {"s": ["Qmlhc0FkZA=="]}}, "dilations": {"list": {"i": ["1", "1", "1", "1"]}}, "strides": {"list": {"i": ["1", "1", "1", "1"]}}, "epsilon": {"f": 0.0}, "use_cudnn_on_gpu": {"b": true}}}, {"name": "StatefulPartitionedCall/sequential_3/keras_layer_1/StatefulPartitionedCall/StatefulPartitionedCall/StatefulPartitionedCall/predict/MobilenetV2/expanded_conv_15/add", "op": "AddV2", "input": ["StatefulPartitionedCall/sequential_3/keras_layer_1/StatefulPartitionedCall/StatefulPartitionedCall/StatefulPartitionedCall/predict/MobilenetV2/expanded_conv_15/project/BatchNorm/FusedBatchNormV3", "StatefulPartitionedCall/sequential_3/keras_layer_1/StatefulPartitionedCall/StatefulPartitionedCall/StatefulPartitionedCall/predict/MobilenetV2/expanded_conv_14/add"], "attr": {"T": {"type": "DT_FLOAT"}}}, {"name": "StatefulPartitionedCall/sequential_3/keras_layer_1/StatefulPartitionedCall/StatefulPartitionedCall/StatefulPartitionedCall/predict/MobilenetV2/expanded_conv_16/expand/Relu6", "op": "_FusedConv2D", "input": ["StatefulPartitionedCall/sequential_3/keras_layer_1/StatefulPartitionedCall/StatefulPartitionedCall/StatefulPartitionedCall/predict/MobilenetV2/expanded_conv_15/add", "StatefulPartitionedCall/sequential_3/keras_layer_1/StatefulPartitionedCall/StatefulPartitionedCall/StatefulPartitionedCall/predict/MobilenetV2/expanded_conv_16/expand/Conv2D_weights", "StatefulPartitionedCall/sequential_3/keras_layer_1/StatefulPartitionedCall/StatefulPartitionedCall/StatefulPartitionedCall/predict/MobilenetV2/expanded_conv_16/expand/Conv2D_bn_offset"], "device": "/device:CPU:0", "attr": {"epsilon": {"f": 0.0}, "num_args": {"i": "1"}, "dilations": {"list": {"i": ["1", "1", "1", "1"]}}, "use_cudnn_on_gpu": {"b": true}, "strides": {"list": {"i": ["1", "1", "1", "1"]}}, "fused_ops": {"list": {"s": ["Qmlhc0FkZA==", "UmVsdTY="]}}, "padding": {"s": "U0FNRQ=="}, "T": {"type": "DT_FLOAT"}, "data_format": {"s": "TkhXQw=="}, "explicit_paddings": {"list": {}}}}, {"name": "StatefulPartitionedCall/sequential_3/keras_layer_1/StatefulPartitionedCall/StatefulPartitionedCall/StatefulPartitionedCall/predict/MobilenetV2/expanded_conv_16/depthwise/depthwise", "op": "FusedDepthwiseConv2dNative", "input": ["StatefulPartitionedCall/sequential_3/keras_layer_1/StatefulPartitionedCall/StatefulPartitionedCall/StatefulPartitionedCall/predict/MobilenetV2/expanded_conv_16/expand/Relu6", "StatefulPartitionedCall/sequential_3/keras_layer_1/StatefulPartitionedCall/StatefulPartitionedCall/StatefulPartitionedCall/predict/MobilenetV2/expanded_conv_16/depthwise/depthwise_weights", "StatefulPartitionedCall/sequential_3/keras_layer_1/StatefulPartitionedCall/StatefulPartitionedCall/StatefulPartitionedCall/predict/MobilenetV2/expanded_conv_16/depthwise/depthwise_bn_offset"], "attr": {"T": {"type": "DT_FLOAT"}, "strides": {"list": {"i": ["1", "1", "1", "1"]}}, "fused_ops": {"list": {"s": ["Qmlhc0FkZA==", "UmVsdTY="]}}, "data_format": {"s": "TkhXQw=="}, "explicit_paddings": {"list": {}}, "num_args": {"i": "1"}, "padding": {"s": "U0FNRQ=="}, "dilations": {"list": {"i": ["1", "1", "1", "1"]}}}}, {"name": "StatefulPartitionedCall/sequential_3/keras_layer_1/StatefulPartitionedCall/StatefulPartitionedCall/StatefulPartitionedCall/predict/MobilenetV2/expanded_conv_16/project/BatchNorm/FusedBatchNormV3", "op": "_FusedConv2D", "input": ["StatefulPartitionedCall/sequential_3/keras_layer_1/StatefulPartitionedCall/StatefulPartitionedCall/StatefulPartitionedCall/predict/MobilenetV2/expanded_conv_16/depthwise/depthwise", "StatefulPartitionedCall/sequential_3/keras_layer_1/StatefulPartitionedCall/StatefulPartitionedCall/StatefulPartitionedCall/predict/MobilenetV2/expanded_conv_16/project/Conv2D_weights", "StatefulPartitionedCall/sequential_3/keras_layer_1/StatefulPartitionedCall/StatefulPartitionedCall/StatefulPartitionedCall/predict/MobilenetV2/expanded_conv_16/project/Conv2D_bn_offset"], "device": "/device:CPU:0", "attr": {"T": {"type": "DT_FLOAT"}, "strides": {"list": {"i": ["1", "1", "1", "1"]}}, "fused_ops": {"list": {"s": ["Qmlhc0FkZA=="]}}, "explicit_paddings": {"list": {}}, "num_args": {"i": "1"}, "data_format": {"s": "TkhXQw=="}, "padding": {"s": "U0FNRQ=="}, "epsilon": {"f": 0.0}, "use_cudnn_on_gpu": {"b": true}, "dilations": {"list": {"i": ["1", "1", "1", "1"]}}}}, {"name": "StatefulPartitionedCall/sequential_3/keras_layer_1/StatefulPartitionedCall/StatefulPartitionedCall/StatefulPartitionedCall/predict/MobilenetV2/Conv_1/Relu6", "op": "_FusedConv2D", "input": ["StatefulPartitionedCall/sequential_3/keras_layer_1/StatefulPartitionedCall/StatefulPartitionedCall/StatefulPartitionedCall/predict/MobilenetV2/expanded_conv_16/project/BatchNorm/FusedBatchNormV3", "StatefulPartitionedCall/sequential_3/keras_layer_1/StatefulPartitionedCall/StatefulPartitionedCall/StatefulPartitionedCall/predict/MobilenetV2/Conv_1/Conv2D_weights", "StatefulPartitionedCall/sequential_3/keras_layer_1/StatefulPartitionedCall/StatefulPartitionedCall/StatefulPartitionedCall/predict/MobilenetV2/Conv_1/Conv2D_bn_offset"], "device": "/device:CPU:0", "attr": {"num_args": {"i": "1"}, "data_format": {"s": "TkhXQw=="}, "strides": {"list": {"i": ["1", "1", "1", "1"]}}, "epsilon": {"f": 0.0}, "fused_ops": {"list": {"s": ["Qmlhc0FkZA==", "UmVsdTY="]}}, "use_cudnn_on_gpu": {"b": true}, "dilations": {"list": {"i": ["1", "1", "1", "1"]}}, "T": {"type": "DT_FLOAT"}, "padding": {"s": "U0FNRQ=="}, "explicit_paddings": {"list": {}}}}, {"name": "StatefulPartitionedCall/sequential_3/keras_layer_1/StatefulPartitionedCall/StatefulPartitionedCall/StatefulPartitionedCall/predict/MobilenetV2/Logits/AvgPool", "op": "AvgPool", "input": ["StatefulPartitionedCall/sequential_3/keras_layer_1/StatefulPartitionedCall/StatefulPartitionedCall/StatefulPartitionedCall/predict/MobilenetV2/Conv_1/Relu6"], "attr": {"padding": {"s": "VkFMSUQ="}, "strides": {"list": {"i": ["1", "1", "1", "1"]}}, "T": {"type": "DT_FLOAT"}, "ksize": {"list": {"i": ["1", "3", "3", "1"]}}, "data_format": {"s": "TkhXQw=="}}}, {"name": "StatefulPartitionedCall/sequential_3/keras_layer_1/StatefulPartitionedCall/StatefulPartitionedCall/StatefulPartitionedCall/predict/feature_vector/SpatialSqueeze", "op": "Squeeze", "input": ["StatefulPartitionedCall/sequential_3/keras_layer_1/StatefulPartitionedCall/StatefulPartitionedCall/StatefulPartitionedCall/predict/MobilenetV2/Logits/AvgPool"], "attr": {"squeeze_dims": {"list": {"i": ["1", "2"]}}, "T": {"type": "DT_FLOAT"}}}, {"name": "StatefulPartitionedCall/sequential_3/dense_1/BiasAdd", "op": "_FusedMatMul", "input": ["StatefulPartitionedCall/sequential_3/keras_layer_1/StatefulPartitionedCall/StatefulPartitionedCall/StatefulPartitionedCall/predict/feature_vector/SpatialSqueeze", "StatefulPartitionedCall/sequential_3/dense_1/MatMul/ReadVariableOp", "StatefulPartitionedCall/sequential_3/dense_1/BiasAdd/ReadVariableOp"], "device": "/device:CPU:0", "attr": {"num_args": {"i": "1"}, "transpose_b": {"b": false}, "epsilon": {"f": 0.0}, "fused_ops": {"list": {"s": ["Qmlhc0FkZA=="]}}, "T": {"type": "DT_FLOAT"}, "transpose_a": {"b": false}}}, {"name": "Identity", "op": "Identity", "input": ["StatefulPartitionedCall/sequential_3/dense_1/BiasAdd"], "attr": {"T": {"type": "DT_FLOAT"}}}], "library": {}, "versions": {"producer": 1087}}, "weightsManifest": [{"paths": ["group1-shard1of2.bin", "group1-shard2of2.bin"], "weights": [{"name": "StatefulPartitionedCall/sequential_3/dense_1/MatMul/ReadVariableOp", "shape": [1280, 130], "dtype": "float32", "quantization": {"dtype": "uint16", "min": -0.09693684184488482, "scale": 3.3993842700548754e-06, "original_dtype": "float32"}}, {"name": "StatefulPartitionedCall/sequential_3/dense_1/BiasAdd/ReadVariableOp", "shape": [130], "dtype": "float32", "quantization": {"dtype": "uint16", "min": -0.013415409797070555, "scale": 3.4988810696026694e-07, "original_dtype": "float32"}}, {"name": "StatefulPartitionedCall/sequential_3/keras_layer_1/StatefulPartitionedCall/StatefulPartitionedCall/StatefulPartitionedCall/predict/MobilenetV2/Conv/Conv2D_weights", "shape": [3, 3, 3, 32], "dtype": "float32", "quantization": {"dtype": "uint16", "min": -3.989825970722553, "scale": 8.972958440846853e-05, "original_dtype": "float32"}}, {"name": "StatefulPartitionedCall/sequential_3/keras_layer_1/StatefulPartitionedCall/StatefulPartitionedCall/StatefulPartitionedCall/predict/MobilenetV2/expanded_conv_14/expand/Conv2D_weights", "shape": [1, 1, 160, 960], "dtype": "float32", "quantization": {"dtype": "uint16", "min": -0.206731017361046, "scale": 6.377240872414041e-06, "original_dtype": "float32"}}, {"name": "StatefulPartitionedCall/sequential_3/keras_layer_1/StatefulPartitionedCall/StatefulPartitionedCall/StatefulPartitionedCall/predict/MobilenetV2/Conv/Conv2D_bn_offset", "shape": [32], "dtype": "float32", "quantization": {"dtype": "uint16", "min": -5.7747116438264, "scale": 0.0001662218025913589, "original_dtype": "float32"}}, {"name": "StatefulPartitionedCall/sequential_3/keras_layer_1/StatefulPartitionedCall/StatefulPartitionedCall/StatefulPartitionedCall/predict/MobilenetV2/expanded_conv_16/project/Conv2D_bn_offset", "shape": [320], "dtype": "float32", "quantization": {"dtype": "uint16", "min": -11.747205210681582, "scale": 0.00030686777280325965, "original_dtype": "float32"}}, {"name": "StatefulPartitionedCall/sequential_3/keras_layer_1/StatefulPartitionedCall/StatefulPartitionedCall/StatefulPartitionedCall/predict/MobilenetV2/expanded_conv/depthwise/depthwise_weights", "shape": [3, 3, 32, 1], "dtype": "float32", "quantization": {"dtype": "uint16", "min": -60.87630884795255, "scale": 0.0011673533308012149, "original_dtype": "float32"}}, {"name": "StatefulPartitionedCall/sequential_3/keras_layer_1/StatefulPartitionedCall/StatefulPartitionedCall/StatefulPartitionedCall/predict/MobilenetV2/expanded_conv/depthwise/depthwise_bn_offset", "shape": [32], "dtype": "float32", "quantization": {"dtype": "uint16", "min": -3.29136547047295, "scale": 0.00019699338463448346, "original_dtype": "float32"}}, {"name": "StatefulPartitionedCall/sequential_3/keras_layer_1/StatefulPartitionedCall/StatefulPartitionedCall/StatefulPartitionedCall/predict/MobilenetV2/expanded_conv/project/Conv2D_weights", "shape": [1, 1, 32, 16], "dtype": "float32", "quantization": {"dtype": "uint16", "min": -12.740904459884549, "scale": 0.0003389439866955187, "original_dtype": "float32"}}, {"name": "StatefulPartitionedCall/sequential_3/keras_layer_1/StatefulPartitionedCall/StatefulPartitionedCall/StatefulPartitionedCall/predict/MobilenetV2/expanded_conv_14/expand/Conv2D_bn_offset", "shape": [960], "dtype": "float32", "quantization": {"dtype": "uint16", "min": -1.2228762049510185, "scale": 5.322870222647421e-05, "original_dtype": "float32"}}, {"name": "StatefulPartitionedCall/sequential_3/keras_layer_1/StatefulPartitionedCall/StatefulPartitionedCall/StatefulPartitionedCall/predict/MobilenetV2/expanded_conv/project/Conv2D_bn_offset", "shape": [16], "dtype": "float32", "quantization": {"dtype": "uint16", "min": -46.54998096324327, "scale": 0.0015194040200817074, "original_dtype": "float32"}}, {"name": "StatefulPartitionedCall/sequential_3/keras_layer_1/StatefulPartitionedCall/StatefulPartitionedCall/StatefulPartitionedCall/predict/MobilenetV2/expanded_conv_1/expand/Conv2D_weights", "shape": [1, 1, 16, 96], "dtype": "float32", "quantization": {"dtype": "uint16", "min": -1.5735869733694445, "scale": 5.219367054859015e-05, "original_dtype": "float32"}}, {"name": "StatefulPartitionedCall/sequential_3/keras_layer_1/StatefulPartitionedCall/StatefulPartitionedCall/StatefulPartitionedCall/predict/MobilenetV2/expanded_conv_1/expand/Conv2D_bn_offset", "shape": [96], "dtype": "float32", "quantization": {"dtype": "uint16", "min": -2.015190641840199, "scale": 0.00011784740595556719, "original_dtype": "float32"}}, {"name": "StatefulPartitionedCall/sequential_3/keras_layer_1/StatefulPartitionedCall/StatefulPartitionedCall/StatefulPartitionedCall/predict/MobilenetV2/expanded_conv_1/depthwise/depthwise_weights", "shape": [3, 3, 96, 1], "dtype": "float32", "quantization": {"dtype": "uint16", "min": -2.760797685859059, "scale": 7.729862487005989e-05, "original_dtype": "float32"}}, {"name": "StatefulPartitionedCall/sequential_3/keras_layer_1/StatefulPartitionedCall/StatefulPartitionedCall/StatefulPartitionedCall/predict/MobilenetV2/expanded_conv_1/depthwise/depthwise_bn_offset", "shape": [96], "dtype": "float32", "quantization": {"dtype": "uint16", "min": -8.747313985492069, "scale": 0.0002812189032468114, "original_dtype": "float32"}}, {"name": "StatefulPartitionedCall/sequential_3/keras_layer_1/StatefulPartitionedCall/StatefulPartitionedCall/StatefulPartitionedCall/predict/MobilenetV2/expanded_conv_1/project/Conv2D_weights", "shape": [1, 1, 96, 24], "dtype": "float32", "quantization": {"dtype": "uint16", "min": -3.5400918468454385, "scale": 0.00011420756353342061, "original_dtype": "float32"}}, {"name": "StatefulPartitionedCall/sequential_3/keras_layer_1/StatefulPartitionedCall/StatefulPartitionedCall/StatefulPartitionedCall/predict/MobilenetV2/expanded_conv_14/depthwise/depthwise_weights", "shape": [3, 3, 960, 1], "dtype": "float32", "quantization": {"dtype": "uint16", "min": -10.66708414361962, "scale": 0.0003119030451350766, "original_dtype": "float32"}}, {"name": "StatefulPartitionedCall/sequential_3/keras_layer_1/StatefulPartitionedCall/StatefulPartitionedCall/StatefulPartitionedCall/predict/MobilenetV2/expanded_conv_1/project/Conv2D_bn_offset", "shape": [24], "dtype": "float32", "quantization": {"dtype": "uint16", "min": -28.198441232506795, "scale": 0.0008830501748193654, "original_dtype": "float32"}}, {"name": "StatefulPartitionedCall/sequential_3/keras_layer_1/StatefulPartitionedCall/StatefulPartitionedCall/StatefulPartitionedCall/predict/MobilenetV2/expanded_conv_2/expand/Conv2D_weights", "shape": [1, 1, 24, 144], "dtype": "float32", "quantization": {"dtype": "uint16", "min": -0.9131919298090505, "scale": 2.1690504496545224e-05, "original_dtype": "float32"}}, {"name": "StatefulPartitionedCall/sequential_3/keras_layer_1/StatefulPartitionedCall/StatefulPartitionedCall/StatefulPartitionedCall/predict/MobilenetV2/expanded_conv_2/expand/Conv2D_bn_offset", "shape": [144], "dtype": "float32", "quantization": {"dtype": "uint16", "min": -2.887230154894451, "scale": 0.00013368044054516394, "original_dtype": "float32"}}, {"name": "StatefulPartitionedCall/sequential_3/keras_layer_1/StatefulPartitionedCall/StatefulPartitionedCall/StatefulPartitionedCall/predict/MobilenetV2/expanded_conv_14/depthwise/depthwise_bn_offset", "shape": [960], "dtype": "float32", "quantization": {"dtype": "uint16", "min": -12.349226177716462, "scale": 0.0002912759435270529, "original_dtype": "float32"}}, {"name": "StatefulPartitionedCall/sequential_3/keras_layer_1/StatefulPartitionedCall/StatefulPartitionedCall/StatefulPartitionedCall/predict/MobilenetV2/expanded_conv_2/depthwise/depthwise_weights", "shape": [3, 3, 144, 1], "dtype": "float32", "quantization": {"dtype": "uint16", "min": -6.099170347350389, "scale": 0.00016234582627566317, "original_dtype": "float32"}}, {"name": "StatefulPartitionedCall/sequential_3/keras_layer_1/StatefulPartitionedCall/StatefulPartitionedCall/StatefulPartitionedCall/predict/MobilenetV2/expanded_conv_2/depthwise/depthwise_bn_offset", "shape": [144], "dtype": "float32", "quantization": {"dtype": "uint16", "min": -5.491833903910122, "scale": 0.00041938403237190693, "original_dtype": "float32"}}, {"name": "StatefulPartitionedCall/sequential_3/keras_layer_1/StatefulPartitionedCall/StatefulPartitionedCall/StatefulPartitionedCall/predict/MobilenetV2/expanded_conv_2/project/Conv2D_weights", "shape": [1, 1, 144, 24], "dtype": "float32", "quantization": {"dtype": "uint16", "min": -5.4279845463253675, "scale": 0.0001436696896939035, "original_dtype": "float32"}}, {"name": "StatefulPartitionedCall/sequential_3/keras_layer_1/StatefulPartitionedCall/StatefulPartitionedCall/StatefulPartitionedCall/predict/MobilenetV2/expanded_conv_2/project/Conv2D_bn_offset", "shape": [24], "dtype": "float32", "quantization": {"dtype": "uint16", "min": -12.620852988555903, "scale": 0.0005010462101931757, "original_dtype": "float32"}}, {"name": "StatefulPartitionedCall/sequential_3/keras_layer_1/StatefulPartitionedCall/StatefulPartitionedCall/StatefulPartitionedCall/predict/MobilenetV2/expanded_conv_3/expand/Conv2D_weights", "shape": [1, 1, 24, 144], "dtype": "float32", "quantization": {"dtype": "uint16", "min": -0.3317678418468354, "scale": 1.1522917541221013e-05, "original_dtype": "float32"}}, {"name": "StatefulPartitionedCall/sequential_3/keras_layer_1/StatefulPartitionedCall/StatefulPartitionedCall/StatefulPartitionedCall/predict/MobilenetV2/expanded_conv_3/expand/Conv2D_bn_offset", "shape": [144], "dtype": "float32", "quantization": {"dtype": "uint16", "min": -2.65532597857736, "scale": 0.00010184979396944343, "original_dtype": "float32"}}, {"name": "StatefulPartitionedCall/sequential_3/keras_layer_1/StatefulPartitionedCall/StatefulPartitionedCall/StatefulPartitionedCall/predict/MobilenetV2/expanded_conv_14/project/Conv2D_weights", "shape": [1, 1, 960, 160], "dtype": "float32", "quantization": {"dtype": "uint16", "min": -1.4987089395286597, "scale": 4.2715297826160286e-05, "original_dtype": "float32"}}, {"name": "StatefulPartitionedCall/sequential_3/keras_layer_1/StatefulPartitionedCall/StatefulPartitionedCall/StatefulPartitionedCall/predict/MobilenetV2/expanded_conv_3/depthwise/depthwise_weights", "shape": [3, 3, 144, 1], "dtype": "float32", "quantization": {"dtype": "uint16", "min": -2.1197222952712833, "scale": 6.326207345543568e-05, "original_dtype": "float32"}}, {"name": "StatefulPartitionedCall/sequential_3/keras_layer_1/StatefulPartitionedCall/StatefulPartitionedCall/StatefulPartitionedCall/predict/MobilenetV2/expanded_conv_3/depthwise/depthwise_bn_offset", "shape": [144], "dtype": "float32", "quantization": {"dtype": "uint16", "min": -11.127769773423177, "scale": 0.00027103221797557486, "original_dtype": "float32"}}, {"name": "StatefulPartitionedCall/sequential_3/keras_layer_1/StatefulPartitionedCall/StatefulPartitionedCall/StatefulPartitionedCall/predict/MobilenetV2/expanded_conv_3/project/Conv2D_weights", "shape": [1, 1, 144, 32], "dtype": "float32", "quantization": {"dtype": "uint16", "min": -2.291499891911963, "scale": 7.463682795622315e-05, "original_dtype": "float32"}}, {"name": "StatefulPartitionedCall/sequential_3/keras_layer_1/StatefulPartitionedCall/StatefulPartitionedCall/StatefulPartitionedCall/predict/MobilenetV2/Conv_1/Conv2D_weights", "shape": [1, 1, 320, 1280], "dtype": "float32", "quantization": {"dtype": "uint16", "min": -0.47214437804879134, "scale": 1.3650920231554958e-05, "original_dtype": "float32"}}, {"name": "StatefulPartitionedCall/sequential_3/keras_layer_1/StatefulPartitionedCall/StatefulPartitionedCall/StatefulPartitionedCall/predict/MobilenetV2/expanded_conv_3/project/Conv2D_bn_offset", "shape": [32], "dtype": "float32", "quantization": {"dtype": "uint16", "min": -19.77104222050355, "scale": 0.0005434740432805616, "original_dtype": "float32"}}, {"name": "StatefulPartitionedCall/sequential_3/keras_layer_1/StatefulPartitionedCall/StatefulPartitionedCall/StatefulPartitionedCall/predict/MobilenetV2/expanded_conv_4/expand/Conv2D_weights", "shape": [1, 1, 32, 192], "dtype": "float32", "quantization": {"dtype": "uint16", "min": -0.25459232073249666, "scale": 8.175470303859756e-06, "original_dtype": "float32"}}, {"name": "StatefulPartitionedCall/sequential_3/keras_layer_1/StatefulPartitionedCall/StatefulPartitionedCall/StatefulPartitionedCall/predict/MobilenetV2/expanded_conv_14/project/Conv2D_bn_offset", "shape": [160], "dtype": "float32", "quantization": {"dtype": "uint16", "min": -10.712772033928896, "scale": 0.000320377176683082, "original_dtype": "float32"}}, {"name": "StatefulPartitionedCall/sequential_3/keras_layer_1/StatefulPartitionedCall/StatefulPartitionedCall/StatefulPartitionedCall/predict/MobilenetV2/expanded_conv_4/expand/Conv2D_bn_offset", "shape": [192], "dtype": "float32", "quantization": {"dtype": "uint16", "min": -2.5572164970704123, "scale": 9.439358078588507e-05, "original_dtype": "float32"}}, {"name": "StatefulPartitionedCall/sequential_3/keras_layer_1/StatefulPartitionedCall/StatefulPartitionedCall/StatefulPartitionedCall/predict/MobilenetV2/expanded_conv_4/depthwise/depthwise_weights", "shape": [3, 3, 192, 1], "dtype": "float32", "quantization": {"dtype": "uint16", "min": -4.208234156152154, "scale": 0.00017556254301844614, "original_dtype": "float32"}}, {"name": "StatefulPartitionedCall/sequential_3/keras_layer_1/StatefulPartitionedCall/StatefulPartitionedCall/StatefulPartitionedCall/predict/MobilenetV2/expanded_conv_4/depthwise/depthwise_bn_offset", "shape": [192], "dtype": "float32", "quantization": {"dtype": "uint16", "min": -21.028208829333035, "scale": 0.0005317942650683586, "original_dtype": "float32"}}, {"name": "StatefulPartitionedCall/sequential_3/keras_layer_1/StatefulPartitionedCall/StatefulPartitionedCall/StatefulPartitionedCall/predict/MobilenetV2/expanded_conv_4/project/Conv2D_weights", "shape": [1, 1, 192, 32], "dtype": "float32", "quantization": {"dtype": "uint16", "min": -4.285117160856492, "scale": 0.00010515882993095516, "original_dtype": "float32"}}, {"name": "StatefulPartitionedCall/sequential_3/keras_layer_1/StatefulPartitionedCall/StatefulPartitionedCall/StatefulPartitionedCall/predict/MobilenetV2/expanded_conv_4/project/Conv2D_bn_offset", "shape": [32], "dtype": "float32", "quantization": {"dtype": "uint16", "min": -14.039301981729148, "scale": 0.0004171411332817075, "original_dtype": "float32"}}, {"name": "StatefulPartitionedCall/sequential_3/keras_layer_1/StatefulPartitionedCall/StatefulPartitionedCall/StatefulPartitionedCall/predict/MobilenetV2/expanded_conv_5/expand/Conv2D_weights", "shape": [1, 1, 32, 192], "dtype": "float32", "quantization": {"dtype": "uint16", "min": -0.1627386042225358, "scale": 5.435491122997188e-06, "original_dtype": "float32"}}, {"name": "StatefulPartitionedCall/sequential_3/keras_layer_1/StatefulPartitionedCall/StatefulPartitionedCall/StatefulPartitionedCall/predict/MobilenetV2/expanded_conv_15/expand/Conv2D_weights", "shape": [1, 1, 160, 960], "dtype": "float32", "quantization": {"dtype": "uint16", "min": -0.14792320210586982, "scale": 4.797561123013324e-06, "original_dtype": "float32"}}, {"name": "StatefulPartitionedCall/sequential_3/keras_layer_1/StatefulPartitionedCall/StatefulPartitionedCall/StatefulPartitionedCall/predict/MobilenetV2/expanded_conv_5/expand/Conv2D_bn_offset", "shape": [192], "dtype": "float32", "quantization": {"dtype": "uint16", "min": -1.5658928751827261, "scale": 6.918321442001971e-05, "original_dtype": "float32"}}, {"name": "StatefulPartitionedCall/sequential_3/keras_layer_1/StatefulPartitionedCall/StatefulPartitionedCall/StatefulPartitionedCall/predict/MobilenetV2/expanded_conv_5/depthwise/depthwise_weights", "shape": [3, 3, 192, 1], "dtype": "float32", "quantization": {"dtype": "uint16", "min": -6.877616792610293, "scale": 0.00016078965709567244, "original_dtype": "float32"}}, {"name": "StatefulPartitionedCall/sequential_3/keras_layer_1/StatefulPartitionedCall/StatefulPartitionedCall/StatefulPartitionedCall/predict/MobilenetV2/expanded_conv_5/depthwise/depthwise_bn_offset", "shape": [192], "dtype": "float32", "quantization": {"dtype": "uint16", "min": -3.9130396313768068, "scale": 0.00016578568958932369, "original_dtype": "float32"}}, {"name": "StatefulPartitionedCall/sequential_3/keras_layer_1/StatefulPartitionedCall/StatefulPartitionedCall/StatefulPartitionedCall/predict/MobilenetV2/expanded_conv_5/project/Conv2D_weights", "shape": [1, 1, 192, 32], "dtype": "float32", "quantization": {"dtype": "uint16", "min": -2.0693155133279464, "scale": 8.72797466501306e-05, "original_dtype": "float32"}}, {"name": "StatefulPartitionedCall/sequential_3/keras_layer_1/StatefulPartitionedCall/StatefulPartitionedCall/StatefulPartitionedCall/predict/MobilenetV2/expanded_conv_15/expand/Conv2D_bn_offset", "shape": [960], "dtype": "float32", "quantization": {"dtype": "uint16", "min": -2.426719663155345, "scale": 7.035601481953338e-05, "original_dtype": "float32"}}, {"name": "StatefulPartitionedCall/sequential_3/keras_layer_1/StatefulPartitionedCall/StatefulPartitionedCall/StatefulPartitionedCall/predict/MobilenetV2/expanded_conv_5/project/Conv2D_bn_offset", "shape": [32], "dtype": "float32", "quantization": {"dtype": "uint16", "min": -37.907315732292794, "scale": 0.0009173196140812311, "original_dtype": "float32"}}, {"name": "StatefulPartitionedCall/sequential_3/keras_layer_1/StatefulPartitionedCall/StatefulPartitionedCall/StatefulPartitionedCall/predict/MobilenetV2/expanded_conv_6/expand/Conv2D_weights", "shape": [1, 1, 32, 192], "dtype": "float32", "quantization": {"dtype": "uint16", "min": -0.17362427395637225, "scale": 6.069293318291756e-06, "original_dtype": "float32"}}, {"name": "StatefulPartitionedCall/sequential_3/keras_layer_1/StatefulPartitionedCall/StatefulPartitionedCall/StatefulPartitionedCall/predict/MobilenetV2/Conv_1/Conv2D_bn_offset", "shape": [1280], "dtype": "float32", "quantization": {"dtype": "uint16", "min": -5.404672622680664, "scale": 5.810119980776929e-05, "original_dtype": "float32"}}, {"name": "StatefulPartitionedCall/sequential_3/keras_layer_1/StatefulPartitionedCall/StatefulPartitionedCall/StatefulPartitionedCall/predict/MobilenetV2/expanded_conv_6/expand/Conv2D_bn_offset", "shape": [192], "dtype": "float32", "quantization": {"dtype": "uint16", "min": -2.962891585954023, "scale": 7.718476530997533e-05, "original_dtype": "float32"}}, {"name": "StatefulPartitionedCall/sequential_3/keras_layer_1/StatefulPartitionedCall/StatefulPartitionedCall/StatefulPartitionedCall/predict/MobilenetV2/expanded_conv_6/depthwise/depthwise_weights", "shape": [3, 3, 192, 1], "dtype": "float32", "quantization": {"dtype": "uint16", "min": -1.6694877089575153, "scale": 4.894279584173772e-05, "original_dtype": "float32"}}, {"name": "StatefulPartitionedCall/sequential_3/keras_layer_1/StatefulPartitionedCall/StatefulPartitionedCall/StatefulPartitionedCall/predict/MobilenetV2/expanded_conv_6/depthwise/depthwise_bn_offset", "shape": [192], "dtype": "float32", "quantization": {"dtype": "uint16", "min": -1.0446259147671402, "scale": 0.00012068229144722044, "original_dtype": "float32"}}, {"name": "StatefulPartitionedCall/sequential_3/keras_layer_1/StatefulPartitionedCall/StatefulPartitionedCall/StatefulPartitionedCall/predict/MobilenetV2/expanded_conv_6/project/Conv2D_weights", "shape": [1, 1, 192, 64], "dtype": "float32", "quantization": {"dtype": "uint16", "min": -1.8045482829605368, "scale": 6.311154069039754e-05, "original_dtype": "float32"}}, {"name": "StatefulPartitionedCall/sequential_3/keras_layer_1/StatefulPartitionedCall/StatefulPartitionedCall/StatefulPartitionedCall/predict/MobilenetV2/expanded_conv_15/depthwise/depthwise_weights", "shape": [3, 3, 960, 1], "dtype": "float32", "quantization": {"dtype": "uint16", "min": -14.329733456348022, "scale": 0.0005079124324371043, "original_dtype": "float32"}}, {"name": "StatefulPartitionedCall/sequential_3/keras_layer_1/StatefulPartitionedCall/StatefulPartitionedCall/StatefulPartitionedCall/predict/MobilenetV2/expanded_conv_6/project/Conv2D_bn_offset", "shape": [64], "dtype": "float32", "quantization": {"dtype": "uint16", "min": -23.513316419663578, "scale": 0.0007198100906037953, "original_dtype": "float32"}}, {"name": "StatefulPartitionedCall/sequential_3/keras_layer_1/StatefulPartitionedCall/StatefulPartitionedCall/StatefulPartitionedCall/predict/MobilenetV2/expanded_conv_7/expand/Conv2D_weights", "shape": [1, 1, 64, 384], "dtype": "float32", "quantization": {"dtype": "uint16", "min": -0.175528011504287, "scale": 6.0095868085554304e-06, "original_dtype": "float32"}}, {"name": "StatefulPartitionedCall/sequential_3/keras_layer_1/StatefulPartitionedCall/StatefulPartitionedCall/StatefulPartitionedCall/predict/MobilenetV2/expanded_conv_7/expand/Conv2D_bn_offset", "shape": [384], "dtype": "float32", "quantization": {"dtype": "uint16", "min": -1.3405915009763516, "scale": 6.4722227633677e-05, "original_dtype": "float32"}}, {"name": "StatefulPartitionedCall/sequential_3/keras_layer_1/StatefulPartitionedCall/StatefulPartitionedCall/StatefulPartitionedCall/predict/MobilenetV2/expanded_conv_15/depthwise/depthwise_bn_offset", "shape": [960], "dtype": "float32", "quantization": {"dtype": "uint16", "min": -17.467584410941217, "scale": 0.00033152870503608446, "original_dtype": "float32"}}, {"name": "StatefulPartitionedCall/sequential_3/keras_layer_1/StatefulPartitionedCall/StatefulPartitionedCall/StatefulPartitionedCall/predict/MobilenetV2/expanded_conv_7/depthwise/depthwise_weights", "shape": [3, 3, 384, 1], "dtype": "float32", "quantization": {"dtype": "uint16", "min": -4.377668331405559, "scale": 0.00018194797719890105, "original_dtype": "float32"}}, {"name": "StatefulPartitionedCall/sequential_3/keras_layer_1/StatefulPartitionedCall/StatefulPartitionedCall/StatefulPartitionedCall/predict/MobilenetV2/expanded_conv_7/depthwise/depthwise_bn_offset", "shape": [384], "dtype": "float32", "quantization": {"dtype": "uint16", "min": -8.234546085345151, "scale": 0.00026095024988417897, "original_dtype": "float32"}}, {"name": "StatefulPartitionedCall/sequential_3/keras_layer_1/StatefulPartitionedCall/StatefulPartitionedCall/StatefulPartitionedCall/predict/MobilenetV2/expanded_conv_7/project/Conv2D_weights", "shape": [1, 1, 384, 64], "dtype": "float32", "quantization": {"dtype": "uint16", "min": -2.35905048041192, "scale": 6.9410376920938e-05, "original_dtype": "float32"}}, {"name": "StatefulPartitionedCall/sequential_3/keras_layer_1/StatefulPartitionedCall/StatefulPartitionedCall/StatefulPartitionedCall/predict/MobilenetV2/expanded_conv_7/project/Conv2D_bn_offset", "shape": [64], "dtype": "float32", "quantization": {"dtype": "uint16", "min": -17.222476707098185, "scale": 0.0003804979057309101, "original_dtype": "float32"}}, {"name": "StatefulPartitionedCall/sequential_3/keras_layer_1/StatefulPartitionedCall/StatefulPartitionedCall/StatefulPartitionedCall/predict/MobilenetV2/expanded_conv_8/expand/Conv2D_weights", "shape": [1, 1, 64, 384], "dtype": "float32", "quantization": {"dtype": "uint16", "min": -0.13800866183567403, "scale": 4.41034966878672e-06, "original_dtype": "float32"}}, {"name": "StatefulPartitionedCall/sequential_3/keras_layer_1/StatefulPartitionedCall/StatefulPartitionedCall/StatefulPartitionedCall/predict/MobilenetV2/expanded_conv_8/expand/Conv2D_bn_offset", "shape": [384], "dtype": "float32", "quantization": {"dtype": "uint16", "min": -1.90933226044558, "scale": 5.89154610110337e-05, "original_dtype": "float32"}}, {"name": "StatefulPartitionedCall/sequential_3/keras_layer_1/StatefulPartitionedCall/StatefulPartitionedCall/StatefulPartitionedCall/predict/MobilenetV2/expanded_conv_15/project/Conv2D_weights", "shape": [1, 1, 960, 160], "dtype": "float32", "quantization": {"dtype": "uint16", "min": -3.378832838309205, "scale": 9.213156018730449e-05, "original_dtype": "float32"}}, {"name": "StatefulPartitionedCall/sequential_3/keras_layer_1/StatefulPartitionedCall/StatefulPartitionedCall/StatefulPartitionedCall/predict/MobilenetV2/expanded_conv_8/depthwise/depthwise_weights", "shape": [3, 3, 384, 1], "dtype": "float32", "quantization": {"dtype": "uint16", "min": -7.853282570717054, "scale": 0.00022175644012867944, "original_dtype": "float32"}}, {"name": "StatefulPartitionedCall/sequential_3/keras_layer_1/StatefulPartitionedCall/StatefulPartitionedCall/StatefulPartitionedCall/predict/MobilenetV2/expanded_conv_8/depthwise/depthwise_bn_offset", "shape": [384], "dtype": "float32", "quantization": {"dtype": "uint16", "min": -12.863606470579084, "scale": 0.00032342560205614573, "original_dtype": "float32"}}, {"name": "StatefulPartitionedCall/sequential_3/keras_layer_1/StatefulPartitionedCall/StatefulPartitionedCall/StatefulPartitionedCall/predict/MobilenetV2/expanded_conv_8/project/Conv2D_weights", "shape": [1, 1, 384, 64], "dtype": "float32", "quantization": {"dtype": "uint16", "min": -1.9033924058435565, "scale": 5.0750364107280534e-05, "original_dtype": "float32"}}, {"name": "StatefulPartitionedCall/sequential_3/keras_layer_1/StatefulPartitionedCall/StatefulPartitionedCall/StatefulPartitionedCall/predict/MobilenetV2/expanded_conv_8/project/Conv2D_bn_offset", "shape": [64], "dtype": "float32", "quantization": {"dtype": "uint16", "min": -4.674203668033957, "scale": 0.0001739626955984204, "original_dtype": "float32"}}, {"name": "StatefulPartitionedCall/sequential_3/keras_layer_1/StatefulPartitionedCall/StatefulPartitionedCall/StatefulPartitionedCall/predict/MobilenetV2/expanded_conv_9/expand/Conv2D_weights", "shape": [1, 1, 64, 384], "dtype": "float32", "quantization": {"dtype": "uint16", "min": -0.1544789291514115, "scale": 4.7839623781057105e-06, "original_dtype": "float32"}}, {"name": "StatefulPartitionedCall/sequential_3/keras_layer_1/StatefulPartitionedCall/StatefulPartitionedCall/StatefulPartitionedCall/predict/MobilenetV2/expanded_conv_15/project/Conv2D_bn_offset", "shape": [160], "dtype": "float32", "quantization": {"dtype": "uint16", "min": -19.493013265802848, "scale": 0.0006444397403399514, "original_dtype": "float32"}}, {"name": "StatefulPartitionedCall/sequential_3/keras_layer_1/StatefulPartitionedCall/StatefulPartitionedCall/StatefulPartitionedCall/predict/MobilenetV2/expanded_conv_9/expand/Conv2D_bn_offset", "shape": [384], "dtype": "float32", "quantization": {"dtype": "uint16", "min": -1.3066195374796827, "scale": 4.7182303740283925e-05, "original_dtype": "float32"}}, {"name": "StatefulPartitionedCall/sequential_3/keras_layer_1/StatefulPartitionedCall/StatefulPartitionedCall/StatefulPartitionedCall/predict/MobilenetV2/expanded_conv_9/depthwise/depthwise_weights", "shape": [3, 3, 384, 1], "dtype": "float32", "quantization": {"dtype": "uint16", "min": -3.62800759142102, "scale": 0.00016707380112461525, "original_dtype": "float32"}}, {"name": "StatefulPartitionedCall/sequential_3/keras_layer_1/StatefulPartitionedCall/StatefulPartitionedCall/StatefulPartitionedCall/predict/MobilenetV2/expanded_conv_9/depthwise/depthwise_bn_offset", "shape": [384], "dtype": "float32", "quantization": {"dtype": "uint16", "min": -6.867917927802905, "scale": 0.00019974748939309849, "original_dtype": "float32"}}, {"name": "StatefulPartitionedCall/sequential_3/keras_layer_1/StatefulPartitionedCall/StatefulPartitionedCall/StatefulPartitionedCall/predict/MobilenetV2/expanded_conv_9/project/Conv2D_weights", "shape": [1, 1, 384, 64], "dtype": "float32", "quantization": {"dtype": "uint16", "min": -1.8083063632679577, "scale": 5.924211647451047e-05, "original_dtype": "float32"}}, {"name": "StatefulPartitionedCall/sequential_3/keras_layer_1/StatefulPartitionedCall/StatefulPartitionedCall/StatefulPartitionedCall/predict/MobilenetV2/expanded_conv_9/project/Conv2D_bn_offset", "shape": [64], "dtype": "float32", "quantization": {"dtype": "uint16", "min": -7.22686134298215, "scale": 0.00031011248467997554, "original_dtype": "float32"}}, {"name": "StatefulPartitionedCall/sequential_3/keras_layer_1/StatefulPartitionedCall/StatefulPartitionedCall/StatefulPartitionedCall/predict/MobilenetV2/expanded_conv_10/expand/Conv2D_weights", "shape": [1, 1, 64, 384], "dtype": "float32", "quantization": {"dtype": "uint16", "min": -0.1968276846849501, "scale": 5.543661024783836e-06, "original_dtype": "float32"}}, {"name": "StatefulPartitionedCall/sequential_3/keras_layer_1/StatefulPartitionedCall/StatefulPartitionedCall/StatefulPartitionedCall/predict/MobilenetV2/expanded_conv_16/expand/Conv2D_weights", "shape": [1, 1, 160, 960], "dtype": "float32", "quantization": {"dtype": "uint16", "min": -0.2417224168804751, "scale": 7.784940962334142e-06, "original_dtype": "float32"}}, {"name": "StatefulPartitionedCall/sequential_3/keras_layer_1/StatefulPartitionedCall/StatefulPartitionedCall/StatefulPartitionedCall/predict/MobilenetV2/expanded_conv_10/expand/Conv2D_bn_offset", "shape": [384], "dtype": "float32", "quantization": {"dtype": "uint16", "min": -1.1483243382912964, "scale": 4.885239250792549e-05, "original_dtype": "float32"}}, {"name": "StatefulPartitionedCall/sequential_3/keras_layer_1/StatefulPartitionedCall/StatefulPartitionedCall/StatefulPartitionedCall/predict/MobilenetV2/expanded_conv_10/depthwise/depthwise_weights", "shape": [3, 3, 384, 1], "dtype": "float32", "quantization": {"dtype": "uint16", "min": -3.904677941814262, "scale": 9.415669018119754e-05, "original_dtype": "float32"}}, {"name": "StatefulPartitionedCall/sequential_3/keras_layer_1/StatefulPartitionedCall/StatefulPartitionedCall/StatefulPartitionedCall/predict/MobilenetV2/expanded_conv_10/depthwise/depthwise_bn_offset", "shape": [384], "dtype": "float32", "quantization": {"dtype": "uint16", "min": -6.030632374384333, "scale": 0.00024094579784986748, "original_dtype": "float32"}}, {"name": "StatefulPartitionedCall/sequential_3/keras_layer_1/StatefulPartitionedCall/StatefulPartitionedCall/StatefulPartitionedCall/predict/MobilenetV2/expanded_conv_10/project/Conv2D_weights", "shape": [1, 1, 384, 96], "dtype": "float32", "quantization": {"dtype": "uint16", "min": -0.9102750191519733, "scale": 3.077228691227387e-05, "original_dtype": "float32"}}, {"name": "StatefulPartitionedCall/sequential_3/keras_layer_1/StatefulPartitionedCall/StatefulPartitionedCall/StatefulPartitionedCall/predict/MobilenetV2/expanded_conv_16/expand/Conv2D_bn_offset", "shape": [960], "dtype": "float32", "quantization": {"dtype": "uint16", "min": -1.6592920865857592, "scale": 6.810705112612401e-05, "original_dtype": "float32"}}, {"name": "StatefulPartitionedCall/sequential_3/keras_layer_1/StatefulPartitionedCall/StatefulPartitionedCall/StatefulPartitionedCall/predict/MobilenetV2/expanded_conv_10/project/Conv2D_bn_offset", "shape": [96], "dtype": "float32", "quantization": {"dtype": "uint16", "min": -14.07435370419276, "scale": 0.00042597922833513194, "original_dtype": "float32"}}, {"name": "StatefulPartitionedCall/sequential_3/keras_layer_1/StatefulPartitionedCall/StatefulPartitionedCall/StatefulPartitionedCall/predict/MobilenetV2/expanded_conv_11/expand/Conv2D_weights", "shape": [1, 1, 96, 576], "dtype": "float32", "quantization": {"dtype": "uint16", "min": -0.15948426898287774, "scale": 5.299889305558877e-06, "original_dtype": "float32"}}, {"name": "StatefulPartitionedCall/sequential_3/keras_layer_1/StatefulPartitionedCall/StatefulPartitionedCall/StatefulPartitionedCall/predict/MobilenetV2/expanded_conv_11/expand/Conv2D_bn_offset", "shape": [576], "dtype": "float32", "quantization": {"dtype": "uint16", "min": -1.8233115329525604, "scale": 5.585441529691706e-05, "original_dtype": "float32"}}, {"name": "StatefulPartitionedCall/sequential_3/keras_layer_1/StatefulPartitionedCall/StatefulPartitionedCall/StatefulPartitionedCall/predict/MobilenetV2/expanded_conv_11/depthwise/depthwise_weights", "shape": [3, 3, 576, 1], "dtype": "float32", "quantization": {"dtype": "uint16", "min": -5.200810060088545, "scale": 0.000136318150033774, "original_dtype": "float32"}}, {"name": "StatefulPartitionedCall/sequential_3/keras_layer_1/StatefulPartitionedCall/StatefulPartitionedCall/StatefulPartitionedCall/predict/MobilenetV2/expanded_conv_11/depthwise/depthwise_bn_offset", "shape": [576], "dtype": "float32", "quantization": {"dtype": "uint16", "min": -7.528840958867474, "scale": 0.00022085836952880617, "original_dtype": "float32"}}, {"name": "StatefulPartitionedCall/sequential_3/keras_layer_1/StatefulPartitionedCall/StatefulPartitionedCall/StatefulPartitionedCall/predict/MobilenetV2/expanded_conv_11/project/Conv2D_weights", "shape": [1, 1, 576, 96], "dtype": "float32", "quantization": {"dtype": "uint16", "min": -1.031292481156666, "scale": 3.0130963308401727e-05, "original_dtype": "float32"}}, {"name": "StatefulPartitionedCall/sequential_3/keras_layer_1/StatefulPartitionedCall/StatefulPartitionedCall/StatefulPartitionedCall/predict/MobilenetV2/expanded_conv_16/depthwise/depthwise_weights", "shape": [3, 3, 960, 1], "dtype": "float32", "quantization": {"dtype": "uint16", "min": -3.2475263905796243, "scale": 0.00013734516348401878, "original_dtype": "float32"}}, {"name": "StatefulPartitionedCall/sequential_3/keras_layer_1/StatefulPartitionedCall/StatefulPartitionedCall/StatefulPartitionedCall/predict/MobilenetV2/expanded_conv_11/project/Conv2D_bn_offset", "shape": [96], "dtype": "float32", "quantization": {"dtype": "uint16", "min": -7.1267511026623, "scale": 0.00019107083575061796, "original_dtype": "float32"}}, {"name": "StatefulPartitionedCall/sequential_3/keras_layer_1/StatefulPartitionedCall/StatefulPartitionedCall/StatefulPartitionedCall/predict/MobilenetV2/expanded_conv_12/expand/Conv2D_weights", "shape": [1, 1, 96, 576], "dtype": "float32", "quantization": {"dtype": "uint16", "min": -0.1599767870701377, "scale": 4.8010800117084635e-06, "original_dtype": "float32"}}, {"name": "StatefulPartitionedCall/sequential_3/keras_layer_1/StatefulPartitionedCall/StatefulPartitionedCall/StatefulPartitionedCall/predict/MobilenetV2/expanded_conv_12/expand/Conv2D_bn_offset", "shape": [576], "dtype": "float32", "quantization": {"dtype": "uint16", "min": -2.3169373694679107, "scale": 7.634815202385444e-05, "original_dtype": "float32"}}, {"name": "StatefulPartitionedCall/sequential_3/keras_layer_1/StatefulPartitionedCall/StatefulPartitionedCall/StatefulPartitionedCall/predict/MobilenetV2/expanded_conv_16/depthwise/depthwise_bn_offset", "shape": [960], "dtype": "float32", "quantization": {"dtype": "uint16", "min": -13.066958344874925, "scale": 0.0002877043979231786, "original_dtype": "float32"}}, {"name": "StatefulPartitionedCall/sequential_3/keras_layer_1/StatefulPartitionedCall/StatefulPartitionedCall/StatefulPartitionedCall/predict/MobilenetV2/expanded_conv_12/depthwise/depthwise_weights", "shape": [3, 3, 576, 1], "dtype": "float32", "quantization": {"dtype": "uint16", "min": -4.535301636285273, "scale": 0.00020931839369941723, "original_dtype": "float32"}}, {"name": "StatefulPartitionedCall/sequential_3/keras_layer_1/StatefulPartitionedCall/StatefulPartitionedCall/StatefulPartitionedCall/predict/MobilenetV2/expanded_conv_12/depthwise/depthwise_bn_offset", "shape": [576], "dtype": "float32", "quantization": {"dtype": "uint16", "min": -9.917255429114867, "scale": 0.0003050993825292991, "original_dtype": "float32"}}, {"name": "StatefulPartitionedCall/sequential_3/keras_layer_1/StatefulPartitionedCall/StatefulPartitionedCall/StatefulPartitionedCall/predict/MobilenetV2/expanded_conv_12/project/Conv2D_weights", "shape": [1, 1, 576, 96], "dtype": "float32", "quantization": {"dtype": "uint16", "min": -1.5382111266593033, "scale": 4.681390001397843e-05, "original_dtype": "float32"}}, {"name": "StatefulPartitionedCall/sequential_3/keras_layer_1/StatefulPartitionedCall/StatefulPartitionedCall/StatefulPartitionedCall/predict/MobilenetV2/expanded_conv_12/project/Conv2D_bn_offset", "shape": [96], "dtype": "float32", "quantization": {"dtype": "uint16", "min": -13.435681534948543, "scale": 0.00035468127913594, "original_dtype": "float32"}}, {"name": "StatefulPartitionedCall/sequential_3/keras_layer_1/StatefulPartitionedCall/StatefulPartitionedCall/StatefulPartitionedCall/predict/MobilenetV2/expanded_conv_13/expand/Conv2D_weights", "shape": [1, 1, 96, 576], "dtype": "float32", "quantization": {"dtype": "uint16", "min": -0.19923512434953952, "scale": 6.092444631812719e-06, "original_dtype": "float32"}}, {"name": "StatefulPartitionedCall/sequential_3/keras_layer_1/StatefulPartitionedCall/StatefulPartitionedCall/StatefulPartitionedCall/predict/MobilenetV2/expanded_conv_13/expand/Conv2D_bn_offset", "shape": [576], "dtype": "float32", "quantization": {"dtype": "uint16", "min": -3.0794562047066476, "scale": 7.908208024413578e-05, "original_dtype": "float32"}}, {"name": "StatefulPartitionedCall/sequential_3/keras_layer_1/StatefulPartitionedCall/StatefulPartitionedCall/StatefulPartitionedCall/predict/MobilenetV2/expanded_conv_16/project/Conv2D_weights", "shape": [1, 1, 960, 320], "dtype": "float32", "quantization": {"dtype": "uint16", "min": -0.3506180705045175, "scale": 1.0569062232607388e-05, "original_dtype": "float32"}}, {"name": "StatefulPartitionedCall/sequential_3/keras_layer_1/StatefulPartitionedCall/StatefulPartitionedCall/StatefulPartitionedCall/predict/MobilenetV2/expanded_conv_13/depthwise/depthwise_weights", "shape": [3, 3, 576, 1], "dtype": "float32", "quantization": {"dtype": "uint16", "min": -1.4226372501329343, "scale": 4.988908858651053e-05, "original_dtype": "float32"}}, {"name": "StatefulPartitionedCall/sequential_3/keras_layer_1/StatefulPartitionedCall/StatefulPartitionedCall/StatefulPartitionedCall/predict/MobilenetV2/expanded_conv_13/depthwise/depthwise_bn_offset", "shape": [576], "dtype": "float32", "quantization": {"dtype": "uint16", "min": -4.3826416593053805, "scale": 0.00014503894030861372, "original_dtype": "float32"}}, {"name": "StatefulPartitionedCall/sequential_3/keras_layer_1/StatefulPartitionedCall/StatefulPartitionedCall/StatefulPartitionedCall/predict/MobilenetV2/expanded_conv_13/project/Conv2D_weights", "shape": [1, 1, 576, 160], "dtype": "float32", "quantization": {"dtype": "uint16", "min": -0.7311350423592837, "scale": 2.123108988469622e-05, "original_dtype": "float32"}}, {"name": "StatefulPartitionedCall/sequential_3/keras_layer_1/StatefulPartitionedCall/StatefulPartitionedCall/StatefulPartitionedCall/predict/MobilenetV2/expanded_conv_13/project/Conv2D_bn_offset", "shape": [160], "dtype": "float32", "quantization": {"dtype": "uint16", "min": -14.551538657894705, "scale": 0.000496300772779492, "original_dtype": "float32"}}, {"name": "StatefulPartitionedCall/sequential_3/keras_layer_1/StatefulPartitionedCall/StatefulPartitionedCall/StatefulPartitionedCall/predict/hub_input/Mul/y", "shape": [], "dtype": "float32", "quantization": {"dtype": "uint16", "min": 2.0, "scale": 1.0, "original_dtype": "float32"}}, {"name": "StatefulPartitionedCall/sequential_3/keras_layer_1/StatefulPartitionedCall/StatefulPartitionedCall/StatefulPartitionedCall/predict/hub_input/Sub/y", "shape": [], "dtype": "float32", "quantization": {"dtype": "uint16", "min": 1.0, "scale": 1.0, "original_dtype": "float32"}}]}]}